model.pt (torch, 19133 bytes, 19 tensors)

l1.weight f4 [20, 5]
0	0x3e317dd1	0.17333151
1	0x3e3c9fca	0.1842033
2	0x3f1772a5	0.5915931
3	0xbeeaff4c	-0.458979
4	0xbdaa4621	-0.08314157
5	0x3e090e6d	0.13384409
6	0x3dfffd11	0.124994405
7	0x3e947c94	0.29001296
8	0xbd59548f	-0.053059157
9	0x3ede2543	0.43387803
10	0x3e37d929	0.17953934
11	0x3d474c7a	0.048656918
12	0x3e9133ba	0.28359777
13	0x3d2603bb	0.0405309
14	0xbef0fd1c	-0.47068107
15	0x3e2bba93	0.16770391
16	0xbcf3cf95	-0.029762069
17	0xbf130cee	-0.57441604
18	0xbc9fb58b	-0.019495746
19	0x3e916174	0.28394663
20	0x3ea3486d	0.31891194
21	0x3e25862b	0.16164462
22	0x3d18b98e	0.037286334
23	0x3c123d6a	0.008925775
24	0x3eca2f01	0.39488986
25	0xbefa2b48	-0.48861146
26	0x3e549e08	0.20763409
27	0xbd07c3d2	-0.033145733
28	0xbcec3cd8	-0.028837606
29	0xbe040c2c	-0.12895268
30	0xbe2668a6	-0.16250858
31	0x3e6afb5d	0.2294745
32	0xbf07e7ca	-0.5308806
33	0x3d56e31d	0.052462686
34	0x3cbe2aa8	0.0232137
35	0x3e3f6bbd	0.18693443
36	0x3d140aa7	0.03614297
37	0xbe87971f	-0.26482484
38	0xbc812748	-0.015765801
39	0xbec40dfd	-0.38291922
40	0xbef42ebe	-0.4769191
41	0x3eee4ef4	0.4654461
42	0x3e11c7ed	0.14236422
43	0xbd33a842	-0.043861635
44	0x3e871b4c	0.26388013
45	0xbf14d7cc	-0.5814178
46	0x3d151c39	0.03640387
47	0xbec66216	-0.3874671
48	0x3d02caca	0.031931676
49	0xbf1131a9	-0.567164
50	0xbef055bb	-0.46940407
51	0x3e556f00	0.20843124
52	0xbeae86e0	-0.34087276
53	0xbcf3d889	-0.029766338
54	0xbeef8d58	-0.46787524
55	0x3eaff8e2	0.3436957
56	0x3e237d36	0.15965733
57	0x3ec1ceef	0.3785319
58	0xbddc7eff	-0.1076641
59	0x3ed8057b	0.4219168
60	0xbdc67e4e	-0.096920595
61	0x3e972f09	0.29528072
62	0x3cebb43a	0.028772462
63	0xbcefa721	-0.029254498
64	0x3de146e0	0.109998465
65	0xbf08a513	-0.53376883
66	0x3ddefb31	0.10887755
67	0x3e00b73e	0.12569901
68	0x3ea42621	0.3206034
69	0x3e85b53d	0.26114836
70	0x3e81986d	0.25311604
71	0x3df914d4	0.12162176
72	0x3e53cc5d	0.20683427
73	0x3cbadd24	0.022810526
74	0x3f1bfbe0	0.60931206
75	0xbe7e3a8c	-0.24827021
76	0x3e5349e8	0.20633662
77	0x3db9e4fb	0.09076878
78	0x3d0cd146	0.034379266
79	0x3e162e37	0.14666067
80	0xbe4fd7d4	-0.20297176
81	0x3f055b21	0.52092177
82	0x3a68b660	0.00088772736
83	0xbdf50f0b	-0.1196576
84	0x3dcc983f	0.09989976
85	0xbd5fd5d1	-0.05464727
86	0x3e77b4c3	0.24190049
87	0x3d4a1998	0.049340814
88	0xbc8084fe	-0.015688416
89	0xba9f6d74	-0.0012163357
90	0xbe4834ed	-0.1955144
91	0xbe2d9a85	-0.16953476
92	0x3eb3eced	0.35141698
93	0x3c05a149	0.008156129
94	0x3ee9da75	0.45674482
95	0xbcedfcde	-0.02905124
96	0x3d212a0b	0.039346736
97	0x3ec6b7df	0.38812158
98	0x3e6722b1	0.22571827
99	0xbe04b431	-0.12959363

l1.bias f4 [20]
0	0x3e1b5ea9	0.15172829
1	0x3f13849a	0.5762421
2	0x3dacd087	0.08438211
3	0xbefc6792	-0.49297768
4	0x3e5b7912	0.21432903
5	0x3e280388	0.16407597
6	0xbe57a704	-0.21059805
7	0x3f092d23	0.535845
8	0x3e9f0c6a	0.3106416
9	0x3e5afb2f	0.21384881
10	0xbf11284c	-0.56702113
11	0x3e15223b	0.14563839
12	0x3f12ab91	0.5729304
13	0x3ea5d7f7	0.3239133
14	0x3ea3da85	0.32002655
15	0x3f115f95	0.5678647
16	0xbd712854	-0.05887635
17	0x3ee71913	0.45136318
18	0xbe8f7ed8	-0.28026462
19	0x3d8fa701	0.07014275

l2.weight f4 [20, 20]
0	0xbe093285	-0.13398178
1	0x3dfec2e8	0.12439519
2	0xbe99f3ea	-0.30068904
3	0x3e386eb8	0.18010986
4	0x3e177e1a	0.14794198
5	0xbe3d8977	-0.1850947
6	0x3eeafa30	0.45894003
7	0x3e91da7e	0.2848701
8	0x3e91e332	0.2849365
9	0x3e4c3e37	0.19945608
10	0x3e8205bd	0.25395003
11	0x3c820380	0.01587081
12	0x3e781fef	0.24230932
13	0x3e31d7d4	0.17367488
14	0x3e78a7d4	0.24282771
15	0x3e505465	0.20344694
16	0x3e52f4d9	0.20601214
17	0x3f11974f	0.56871504
18	0x3de44f37	0.111479215
19	0xbf14f9e4	-0.581938
20	0x3e6f590a	0.2337381
21	0x3e3add11	0.18248393
22	0xbdf89a84	-0.121388465
23	0xbdea6ac0	-0.11446142
24	0xb9c993da	-0.00038447866
25	0x3ea30950	0.31843042
26	0x3e03491d	0.12820859
27	0xbd255f37	-0.040374007
28	0x3bed82e9	0.0072482717
29	0x3cdb8fff	0.026802061
30	0x3e83ead0	0.25765085
31	0x3dce64cb	0.100778185
32	0x3eda9131	0.42688897
33	0x3def3d9f	0.11681675
34	0x3d205794	0.03914602
35	0x3e9e021c	0.30860984
36	0x3e7aa894	0.2447837
37	0x3ead1f0d	0.33812752
38	0xbd2d514d	-0.042313863
39	0x3e16430f	0.14674018
40	0x3d88348e	0.06650649
41	0x3d356fec	0.04429619
42	0xbe80f9c4	-0.25190556
43	0xbe42347f	-0.18965338
44	0x3e638497	0.22218548
45	0x3de07662	0.1096008
46	0x3c78bafc	0.015181299
47	0xbea11a66	-0.31465453
48	0x3d80e972	0.06294526
49	0x3e8a82a4	0.27052796
50	0x3e6d70f6	0.23187622
51	0x3e83c132	0.25733334
52	0x3ec747c1	0.3892193
53	0xbd551dd0	-0.052030385
54	0x3d8cb856	0.06871097
55	0xbd06e47a	-0.032932736
56	0x3e5d74cd	0.21626587
57	0x3ee0b7c6	0.43890208
58	0xbe4450d4	-0.19171458
59	0xbdf8efd0	-0.121551156
60	0x3dbc132d	0.09183345
61	0x3e4b67eb	0.1986386
62	0xbdd44d1d	-0.10366271
63	0x3e60f15e	0.21967074
64	0xbd85332e	-0.065039024
65	0xbc94b1f3	-0.018151259
66	0xbd1201de	-0.035646312
67	0xbe06a36d	-0.1314828
68	0x3e00669c	0.12539142
69	0x3e2445a1	0.16042186
70	0x3ce99a9c	0.028516106
71	0xbcd1b15c	-0.025597267
72	0x3eebb880	0.460392
73	0x3ccd0f37	0.025031669
74	0xbd142b48	-0.03617409
75	0x3e809917	0.25116798
76	0x3e971292	0.29506356
77	0x3eeba438	0.46023726
78	0x3d6291f6	0.05531498
79	0xbe082bf1	-0.13298012
80	0x3c60513d	0.013691244
81	0x3e149b09	0.14512266
82	0xbe231a6a	-0.15928045
83	0xbe1020f6	-0.14075074
84	0xbd909efb	-0.07061573
85	0x3c9c8658	0.019107029
86	0xbdf96496	-0.12177388
87	0xbe94ded8	-0.29076266
88	0x3dcd36d7	0.100202255
89	0x3e3541ab	0.17700832
90	0x3e2629e4	0.16226918
91	0xbd7fcb43	-0.062449705
92	0x3eada420	0.3391428
93	0x3d1d16a9	0.03835169
94	0xbd38f79e	-0.04515802
95	0x3e089cd2	0.13341072
96	0x3bb562b7	0.0055354494
97	0x3e0058db	0.12533896
98	0xbe2e7a35	-0.17038806
99	0xbd4b2056	-0.049591385
100	0x3dc822dd	0.09772275
101	0xbdc2f3fd	-0.09519193
102	0x3e7143fd	0.23561092
103	0x3e8d63cf	0.2761521
104	0x3d27690d	0.04087167
105	0x3dd32b32	0.10310973
106	0x3df85695	0.12125889
107	0xbef942db	-0.4868382
108	0xbd7323c3	-0.059360277
109	0x3ecfe64e	0.40605396
110	0x3ebb9a0f	0.36640975
111	0x3e33cc40	0.17558384
112	0xba66b411	-0.00088006357
113	0xbbe1ab4a	-0.0068868743
114	0x3d52b2fc	0.051440224
115	0x3dd2adcb	0.10287055
116	0x3d7b8aff	0.061411854
117	0x3e2d1fcc	0.16906661
118	0x3c9085c9	0.017641919
119	0xbdcd0900	-0.10011482
120	0xbd95d754	-0.07316461
121	0x3cd55f8c	0.026046537
122	0x3e7db58e	0.24776289
123	0x3efe9fe1	0.49731353
124	0x3d94d761	0.07267643
125	0xbe031469	-0.12800755
126	0x3de0f8c2	0.10984947
127	0x3ea2e19a	0.31812745
128	0x3e6d034a	0.23145786
129	0x3da18d9c	0.07888338
130	0x3e18b76b	0.14913718
131	0x3d0aaae4	0.03385438
132	0x3ea01909	0.312691
133	0x3dc4120b	0.09573754
134	0x3e3f3320	0.18671846
135	0x3dcc9cd0	0.09990847
136	0x3d650b22	0.05591882
137	0x3e72ef10	0.23724008
138	0x3d4e2bf5	0.05033489
139	0x3de61e78	0.1123628
140	0xbd9d36f3	-0.07676496
141	0xbe4281ad	-0.1899478
142	0xbbf6cf4f	-0.0075320373
143	0xbdd6b340	-0.10483408
144	0x3dae4ed9	0.08511133
145	0xbc813f1f	-0.015777169
146	0xbcfa8962	-0.030583087
147	0xbdedb45c	-0.116066664
148	0xbde6fdc7	-0.11278873
149	0xbe240439	-0.16017236
150	0x3e24c243	0.1608973
151	0xbddf8ed3	-0.109159134
152	0x3dc92410	0.098213315
153	0x3dce26d5	0.10066
154	0xbe52ccaf	-0.20585893
155	0xbd9fe7df	-0.07807898
156	0xbdb5fd07	-0.08886152
157	0xbe2525eb	-0.16127746
158	0x3e320e29	0.17388214
159	0xbc5e450e	-0.013566269
160	0xbd271e07	-0.04080012
161	0x3e8b981d	0.2726449
162	0xbdccc4de	-0.09998487
163	0xbe0719bc	-0.1319341
164	0x3e82d47b	0.25552735
165	0xbd4c7812	-0.049919195
166	0xbdf85053	-0.12124696
167	0xbdec11b2	-0.115268126
168	0x3e216d71	0.15764405
169	0x3d873b43	0.066031
170	0x3e05f67e	0.1308231
171	0x3e1643f8	0.14674366
172	0x3dcd2efd	0.10018728
173	0xbd8c2b02	-0.068441406
174	0x3e183bc4	0.14866549
175	0x3e40473d	0.18777175
176	0xbc2379d8	-0.00997778
177	0x3eeeef8a	0.4666713
178	0xbd9cabf4	-0.07649985
179	0xbdc08480	-0.09400272
180	0x3e60f0f5	0.21966918
181	0x3e0c403f	0.13696383
182	0x3d0cbe2b	0.034361046
183	0x3eaa649f	0.33279893
184	0x3d88adae	0.06673752
185	0x3da81812	0.08207716
186	0xbd6c634c	-0.057711884
187	0x3df63b5c	0.12023041
188	0x3e8678fb	0.26264176
189	0x3e58eff5	0.21185286
190	0x3ee6e798	0.45098567
191	0x3ddeac4d	0.108727075
192	0x3d9ae62e	0.075634345
193	0x3e04ca80	0.12967873
194	0x3e643749	0.22286715
195	0xbd5d2be3	-0.05399693
196	0x3e955453	0.29165897
197	0x3e5eb80e	0.21749899
198	0x3eb188c0	0.34674644
199	0xbdc73313	-0.097265385
200	0xbc9221d5	-0.017838398
201	0x3dcdfbdd	0.10057805
202	0x3ec7f69b	0.39055333
203	0x3ec148e2	0.37750918
204	0x3e506708	0.20351803
205	0xbcb7d02c	-0.022438131
206	0xbcce1231	-0.025155159
207	0xbd55f5b9	-0.052236293
208	0x3e670533	0.22560577
209	0x3dbfbf13	0.093626164
210	0x3e8d7edb	0.27635846
211	0x3d19f53d	0.037587393
212	0x3e9add1f	0.30246827
213	0xbd8df8e4	-0.06932238
214	0xbdb4b8f5	-0.0882434
215	0x3e7d19a4	0.24716812
216	0x3d8f103d	0.06985519
217	0x3e1607ef	0.14651464
218	0x3db88388	0.090094626
219	0x3da9a2bf	0.082829945
220	0xbb782758	-0.0037865248
221	0x3e329ef8	0.17443454
222	0xbe6dffb2	-0.23242071
223	0xbea01374	-0.31264842
224	0x3dfa8ead	0.122342445
225	0x3ec163a4	0.37771332
226	0xbce6eb71	-0.02818844
227	0x3b9bacc0	0.004750818
228	0x3e49234e	0.19642374
229	0x3dbb4fc6	0.09146075
230	0x3e377c9c	0.17918628
231	0xbc5be599	-0.01342144
232	0x3eae0a58	0.33992267
233	0x3e36c605	0.17848976
234	0xbcfe5b0f	-0.03104928
235	0x3d5377ce	0.051627927
236	0x3e425639	0.18978204
237	0x3ea0bceb	0.31394133
238	0xbe030b31	-0.12797238
239	0xbe180188	-0.14844334
240	0x3e8e7751	0.27825406
241	0xbd8b635c	-0.06806061
242	0xbdd4516a	-0.10367091
243	0xbe58e59d	-0.2118134
244	0x3ebb6ee1	0.3660803
245	0x3e9c3a57	0.3051326
246	0x3e0f3f33	0.13988952
247	0xbdba8890	-0.091080785
248	0x3c6cbdfb	0.014449592
249	0x3d910191	0.07080377
250	0x3e8c290a	0.2737506
251	0x3d12373f	0.035697218
252	0x3ead5f47	0.33861753
253	0x3ded4037	0.11584514
254	0xbc6634d3	-0.01405068
255	0x3dd319f0	0.103076816

l2.bias f4 [20]
0	0x3e235087	0.15948687
1	0x3c9cb2eb	0.019128283
2	0x3da7e25f	0.08197474
3	0x3e04ccde	0.12968776
4	0x3d647d63	0.05578364
5	0xbef25090	-0.4732709
6	0xbe0e7477	-0.13911615
7	0xbe5f4407	-0.21803294
8	0x3e00bcca	0.12572017
9	0x3d912c41	0.07088519
10	0xbcad175e	-0.021129306
11	0x3d200bf8	0.039073914
12	0xbc80c2f5	-0.015717963
13	0x3e53d0c7	0.20685111
14	0xbd8b3a4b	-0.06798228
15	0x3e64617c	0.22302812
16	0xbdbce96b	-0.092242084
17	0xbe0d4d20	-0.13798952
18	0xbdce7a65	-0.10081939
19	0x3e69f5f6	0.22847733

l3.weight f4 [20, 20]
0	0x3d1a3b12	0.03765399
1	0xbe4894e0	-0.19588041
2	0xbe189823	-0.14901786
3	0xbe594787	-0.21218692
4	0x3dfcc6aa	0.1234258
5	0xbe3aa44a	-0.18226734
6	0xbbd55f57	-0.0065116095
7	0x3e43600a	0.19079605
8	0x3e2bb30a	0.16767517
9	0x3da944df	0.08265089
10	0xbb7f9ad0	-0.0039002188
11	0x3dea4dfc	0.114406556
12	0x3d12c2b8	0.03583023
13	0xbe172874	-0.14761525
14	0x3b2d25da	0.0026420266
15	0x3c8f08de	0.017460283
16	0xbd341d87	-0.043973472
17	0xbd63d596	-0.055623613
18	0x3debc819	0.11512775
19	0x3d5b31cf	0.053514298
20	0x3e936e81	0.28795245
21	0x3ec25b7d	0.37960425
22	0x3d62a54a	0.055333413
23	0x3d95431c	0.07288191
24	0x3e6c8b99	0.23100127
25	0x3f1e4727	0.6182732
26	0xbd12267e	-0.03568124
27	0xbdc0785d	-0.093979575
28	0x3eb7bbd2	0.35885483
29	0x3e9124c5	0.28348365
30	0x3e29f9f7	0.1659926
31	0x3e42e050	0.19030881
32	0x3e9ad81a	0.30242997
33	0x3e8d8db0	0.2764716
34	0x3d85c511	0.06531728
35	0x3df13fa0	0.11779714
36	0x3e77f508	0.24214566
37	0x3e0cd91d	0.13754697
38	0x3e883a39	0.2660692
39	0x3ea42e2d	0.3206648
40	0x3d02a79b	0.031898122
41	0x3ea0a09c	0.31372535
42	0x3e73401b	0.23754923
43	0x3db4bf11	0.088255055
44	0x3e03ac33	0.12858658
45	0x3eb8cbf4	0.36093104
46	0x3c051b17	0.0081241345
47	0x3deaac70	0.11458671
48	0x3e3110f3	0.17291622
49	0xbd323a2f	-0.04351252
50	0x3e646347	0.22303496
51	0x3ea056a4	0.31316102
52	0x3e16d449	0.14729418
53	0x3e75769b	0.23971026
54	0x3e3d5c9d	0.1849236
55	0x3e4d913c	0.20074934
56	0x3d92125e	0.071324095
57	0x3e1f73fd	0.1557159
58	0x3ea5ae7a	0.32359678
59	0xbd156081	-0.036468986
60	0xbd9bdd29	-0.07610542
61	0x3e808aca	0.25105888
62	0x3e65845b	0.22413771
63	0x3e63eb4b	0.22257726
64	0x3e8a4277	0.27003834
65	0x3f1f908d	0.6232994
66	0x3db09eef	0.08624064
67	0xbd7e4500	-0.062077522
68	0x3e988658	0.29789996
69	0x3db8f1f0	0.09030521
70	0x3dfbed1a	0.12301083
71	0x3eb75079	0.35803583
72	0x3e1e24c4	0.15443712
73	0x3b9bca22	0.0047543207
74	0x3eab31cb	0.33436427
75	0x3e2ce0d2	0.16882637
76	0x3de90aaf	0.11378991
77	0xbdac9b0a	-0.08428009
78	0x3e4359ef	0.19077276
79	0xbd1c22cf	-0.038119134
80	0x3da8b455	0.082375206
81	0x3cc7fcdf	0.02441257
82	0x3e759e2e	0.23986122
83	0x3e4443bf	0.19166468
84	0x3ba3a193	0.0049936264
85	0x3e96ef23	0.29479322
86	0xbe26d54a	-0.16292301
87	0xbdae0ed8	-0.08498925
88	0x3e67b159	0.22626247
89	0xbe460f1d	-0.19341703
90	0x3de7d48a	0.113198355
91	0x3e771ba9	0.24131645
92	0x3de58ad4	0.1120812
93	0x3e5a4099	0.21313705
94	0x3cc59d9d	0.024123007
95	0x3e2432bd	0.1603498
96	0x3e231180	0.15924644
97	0xbd18c9b5	-0.037301738
98	0x3e563208	0.20917523
99	0x3e2f5c23	0.17124991
100	0x3e35ce64	0.17754513
101	0x3dc07113	0.09396567
102	0x3ea5306e	0.3226351
103	0x3e4aa626	0.19789943
104	0x3e88bb5f	0.26705453
105	0x3e8d6856	0.27618665
106	0x3ce025db	0.0273618
107	0xbdcd1f15	-0.10015694
108	0x3e1cdd58	0.15318811
109	0x3deaa9cc	0.114581674
110	0x3e1b58f1	0.15170647
111	0x3cd7a0ef	0.026321856
112	0x3e8146cc	0.25249326
113	0x3c5878e7	0.013212419
114	0x3e7e45ee	0.24831364
115	0x3e0de1b2	0.13855627
116	0x3dde18bd	0.10844562
117	0x3d06fa4f	0.032953557
118	0x3e91a318	0.28444743
119	0x3e2b3aa9	0.16721596
120	0x3e4bcc09	0.19902052
121	0x3e96935f	0.2940931
122	0x3e4ee519	0.20204581
123	0x3eb87337	0.36025402
124	0x3e087d34	0.13329011
125	0x3ddb3e61	0.10705257
126	0x3e1f08ba	0.15530673
127	0x3e4ee5f6	0.2020491
128	0x3e533836	0.20626912
129	0x3cdcb5e2	0.026942197
130	0x3eb7c7fb	0.3589476
131	0x3da5cd38	0.08095783
132	0x3df1de49	0.11809976
133	0x3ebe078a	0.37115127
134	0x3e8613c0	0.26186943
135	0x3e547133	0.20746307
136	0x3e8dff5d	0.2773389
137	0x3de65046	0.1124578
138	0x3e01a935	0.12662204
139	0x3d7d533e	0.061846964
140	0x3ead6fd5	0.33874384
141	0xbcde1f15	-0.02711443
142	0x3e233317	0.15937458
143	0x3ec260f0	0.37964582
144	0x3e63ff5f	0.22265385
145	0x3e5b5e00	0.21422577
146	0x3ebd9f46	0.37035578
147	0x3ddab3dc	0.10678837
148	0x3ab53333	0.0013824463
149	0x3e9333c4	0.28750432
150	0x3e872b5d	0.2640027
151	0x3eaf379e	0.3422212
152	0x3ea6044b	0.3242515
153	0x3e3788a4	0.17923218
154	0x3dfaa6bb	0.122388326
155	0x3e318909	0.17337431
156	0x3e00d814	0.12582427
157	0x3df1ecd6	0.11812751
158	0x3d690e5f	0.05689847
159	0x3dae59e3	0.08513238
160	0x3dd9b3c1	0.106299885
161	0x3e8659b0	0.262403
162	0xbd2c0c9a	-0.042004205
163	0x3e2b837a	0.16749373
164	0x3e525c88	0.2054311
165	0x3f06e20b	0.52688664
166	0xbd19fc34	-0.037594035
167	0xbdabf3b6	-0.083960935
168	0x3c02749e	0.007962374
169	0xbe0b99de	-0.13632914
170	0xbde5485f	-0.11195444
171	0x3ea48ca6	0.32138556
172	0x3cf79616	0.030222934
173	0xbd325f5d	-0.043547977
174	0x3e1762eb	0.14783828
175	0x3e416594	0.18886405
176	0xbd246cc5	-0.040142793
177	0x3de1b438	0.11020702
178	0x3b79220c	0.0038014678
179	0x3d850ccb	0.06496581
180	0x3d2a4349	0.041568074
181	0x3e3a0b25	0.18168314
182	0xbd394f7a	-0.04524181
183	0x3d3d6178	0.04623553
184	0x3e16434b	0.14674108
185	0x3ec6dc72	0.3884006
186	0x3d232588	0.039830714
187	0x3e2b5717	0.16732441
188	0x3e6e69c3	0.23282532
189	0x3e876b03	0.2644883
190	0xbd2188a7	-0.039436962
191	0x3e333441	0.17500402
192	0x3bf89167	0.0075856927
193	0x3e608589	0.2192594
194	0xbd7bfccb	-0.06152038
195	0xbbbaa9ab	-0.0056964955
196	0x3e844b53	0.25838718
197	0x3e898735	0.26860967
198	0x3e1eaef2	0.15496424
199	0x391c54b8	0.0001490888
200	0x3d6fd66b	0.058554094
201	0xbe0e54a8	-0.13899481
202	0x3e1efcd4	0.15526134
203	0xbed54866	-0.41656798
204	0xbe3507e4	-0.17678791
205	0x3d640779	0.05567119
206	0xbed9de02	-0.4255219
207	0x3e3d8bc1	0.18510343
208	0x3dcb9b19	0.09941692
209	0x3ea33f06	0.3188402
210	0xbe2e9fbd	-0.17053123
211	0x3ee042b5	0.43800893
212	0x3e81d741	0.25359538
213	0x3e0da6d7	0.13833176
214	0xbeaf34b2	-0.3421989
215	0x3e734eae	0.23760483
216	0x3e81679c	0.2527436
217	0xbe63ccec	-0.2224614
218	0xbe89e08c	-0.26929128
219	0xbe8f30a5	-0.279668
220	0xbd19fa7c	-0.037592396
221	0xbda489c8	-0.08034092
222	0xbd64b6e6	-0.055838488
223	0x3e3548ce	0.17703554
224	0x3dd3220e	0.1030923
225	0xbe2cf681	-0.16890909
226	0x3d1053fc	0.035236344
227	0xbe33be5f	-0.1755309
228	0xbe49ab4f	-0.19694255
229	0xbccf030e	-0.025270011
230	0x3e40436b	0.18775718
231	0xbd8d3f2b	-0.06896814
232	0xbdb25585	-0.08707718
233	0xbd5d9b50	-0.054103196
234	0x3c1fcfb8	0.009754114
235	0xbe35ae56	-0.17742285
236	0xbe406bb6	-0.18791088
237	0xbd860fcc	-0.06545982
238	0xbd585931	-0.052819435
239	0xbd3f7598	-0.046743006
240	0x3dbb2965	0.09138755
241	0x3e83f851	0.25775388
242	0x3ea2ad8f	0.3177304
243	0x3e9986da	0.29985696
244	0x3ea583cd	0.3232712
245	0xbe29935d	-0.16560121
246	0x3e499d39	0.19688882
247	0x3db1587e	0.08659457
248	0x3d83bc2d	0.06432376
249	0x3e50fe3d	0.20409484
250	0x3d974935	0.0738701
251	0x3df8f619	0.121563144
252	0x3dacfc9e	0.084466204
253	0x3ec80817	0.39068672
254	0x3e74fdc5	0.2392493
255	0x3e716ed6	0.23577437

l3.bias f4 [20]
0	0xbe29ca35	-0.16581042
1	0x3e9d9b93	0.30782756
2	0x3e187514	0.14888412
3	0x3e7aa23e	0.24475953
4	0x3d442490	0.04788643
5	0x3e407859	0.18795909
6	0x3dab1ebb	0.08355471
7	0x3e532b03	0.20621876
8	0xbde7e7b8	-0.11323494
9	0xbe134cd2	-0.14384773
10	0x3f010d85	0.50411254
11	0xbe1962dd	-0.1497912
12	0xbdb5451f	-0.088510744
13	0x3e7c9b37	0.24668585
14	0xbe263a4b	-0.16233175
15	0x3d7553f0	0.059894502
16	0xbe096be2	-0.1342006
17	0xbdea6c01	-0.11446381
18	0x3dc0ea73	0.09419718
19	0x3e6d99bb	0.23203175

l4.weight f4 [20, 20]
0	0x3e0e68d7	0.1390718
1	0xbe1e5b1f	-0.15464447
2	0xbc54197a	-0.012945527
3	0x3d91a8cd	0.07112274
4	0xbdb5c7cb	-0.08875998
5	0xbd5f711c	-0.05455123
6	0x3e5adf0e	0.21374151
7	0x3e62fbde	0.22166392
8	0x3e944402	0.28958136
9	0x3df6de1e	0.12054084
10	0xbf8236ca	-1.017297
11	0x3e492916	0.1964458
12	0x3e213a78	0.1574496
13	0xbe0112d8	-0.12604845
14	0xbd564a21	-0.05231679
15	0xbdef6033	-0.116882704
16	0xbdaa5c40	-0.083183765
17	0xbde69b0b	-0.11260041
18	0x3e060aad	0.1309001
19	0xbeab1206	-0.33412188
20	0xbe12e49f	-0.14345025
21	0xbe27f338	-0.16401374
22	0x3e17b46c	0.14814919
23	0x3bcf6fb8	0.0063304566
24	0xbbf33a78	-0.0074227415
25	0xbdf78e36	-0.120876715
26	0xbe36c815	-0.17849763
27	0x3b9fea5d	0.004880233
28	0x3d744a50	0.059641182
29	0xbd228c11	-0.03968436
30	0xbe3043bb	-0.17213337
31	0xbdab3595	-0.08359829
32	0xbd7b3429	-0.06132904
33	0xbe0f859e	-0.14015815
34	0x3dcf93f8	0.10135645
35	0xbe2abe33	-0.16674118
36	0xbde7ed68	-0.113245785
37	0xbda98927	-0.08278113
38	0xbd2a1cfa	-0.04153154
39	0xbe4d2479	-0.20033444
40	0xbdaf40c2	-0.085572734
41	0x3e9aedb2	0.30259472
42	0x3ddebfb1	0.10876406
43	0x3e0e8d16	0.13921008
44	0x3e317943	0.17331414
45	0x3e9321b8	0.28736663
46	0xbdde9a21	-0.108692415
47	0x3e25a285	0.16175278
48	0x3e14277b	0.14468186
49	0x3e865605	0.26237503
50	0x3ec0eacb	0.37679133
51	0x3c273748	0.010206051
52	0xbdfb8f55	-0.12283198
53	0x3d74c2fd	0.059756268
54	0xbc13292e	-0.008981986
55	0x3e4cb620	0.1999135
56	0xb93e4364	-0.00018144917
57	0xbe24819d	-0.16065069
58	0x3e6191ac	0.22028226
59	0xbf44fc05	-0.7694705
60	0x3d198b68	0.037486464
61	0x3e0c67fb	0.1371154
62	0x3c95e70d	0.01829865
63	0xbce3e014	-0.02781681
64	0x3c725816	0.014791509
65	0x3e54525a	0.2073454
66	0x3e0a5c3c	0.13511747
67	0x3cb0f68c	0.021601938
68	0xbc8a43cc	-0.016878031
69	0x3e1cf182	0.15326503
70	0xbeaf3718	-0.3422172
71	0xbcaf5aa1	-0.02140552
72	0x3eb4c1bd	0.3530406
73	0x3d9168a6	0.07100038
74	0xbdda8fb2	-0.10671939
75	0x3eaee243	0.34157
76	0x3df41bed	0.11919389
77	0x3d48ef4f	0.049056347
78	0x3e19928c	0.1499731
79	0xbeb9e113	-0.3630453
80	0xbdc98afc	-0.09840962
81	0xbe0ac7de	-0.13552806
82	0xbe2c98cf	-0.16855167
83	0xbe2a66cb	-0.16640775
84	0xbdd7df02	-0.10540582
85	0xbd346e1a	-0.044050314
86	0xbdbf7d27	-0.09350043
87	0xbe04dbf2	-0.12974527
88	0xbdb02eb2	-0.086026564
89	0x3e49c6a7	0.19704686
90	0x3e0b066b	0.13576667
91	0x3e23e71e	0.16006133
92	0x3e24a05f	0.16076802
93	0x3dfa4c7b	0.12221619
94	0xbdb78712	-0.089613095
95	0xbd9cce77	-0.076565675
96	0x3d2b4426	0.04181304
97	0xbe4a36fc	-0.19747537
98	0xbe2867e0	-0.16445875
99	0x3dc72201	0.097232826
100	0x3c559c75	0.013037791
101	0x3e812919	0.25226668
102	0x3eb4256f	0.3518481
103	0x3eaf4d28	0.34238553
104	0xbb1c35d4	-0.0023835795
105	0x3e5b8b1e	0.21439788
106	0x3eb0b806	0.345154
107	0x3ebb6f6e	0.36608452
108	0x3e99727f	0.29970166
109	0x3e346c9e	0.17619559
110	0xbe6e3919	-0.23263969
111	0xbd0a81c5	-0.033815164
112	0x3e8f36d7	0.27971527
113	0x3ebed7c9	0.37274006
114	0xbdb80e5f	-0.08987116
115	0x3e84e58e	0.25956386
116	0x3e9da20b	0.3078769
117	0x3e254961	0.16141273
118	0x3ec2e29a	0.38063508
119	0xbe0b6f4b	-0.13616674
120	0xbe05bf8c	-0.1306135
121	0x3eb714d3	0.35758075
122	0x3eb2fe03	0.3495942
123	0x3d15a070	0.03652996
124	0x3e5f297d	0.2179317
125	0x3dfab6b7	0.12241881
126	0x3e8f77b7	0.28021023
127	0x3e8c0a52	0.27351624
128	0xbc7c8b2d	-0.0154140415
129	0x3d929750	0.07157767
130	0xbf1306f7	-0.574325
131	0x3d72e3cb	0.05929927
132	0x3ec17c7c	0.37790287
133	0x3d7d31e3	0.061815154
134	0x3e1f6723	0.15566687
135	0x3e4df888	0.20114338
136	0xbd28b763	-0.041190516
137	0xbdeac883	-0.11464026
138	0x3e8fec39	0.2810991
139	0xbee48277	-0.44630787
140	0xbd7fd224	-0.062456265
141	0x3d21ba3a	0.03948424
142	0x3d598fcb	0.053115647
143	0xbe0bf4a7	-0.13667546
144	0xbe26634e	-0.16248819
145	0xbd458db4	-0.04823084
146	0x3e5a32c9	0.21308435
147	0x3d9fb0a8	0.077973664
148	0x3baefdc9	0.005340312
149	0x3e53f2b8	0.20698059
150	0x3e82eda7	0.2557194
151	0x3d7f32c7	0.062304284
152	0x3d1b67fe	0.03794097
153	0xbe2e7147	-0.170354
154	0xbcaf3075	-0.02138541
155	0xbe28f399	-0.16499175
156	0x3c1233e1	0.008923502
157	0x3d85028d	0.06494627
158	0x3dce645c	0.10077736
159	0x3e781926	0.24228343
160	0x3d2562d8	0.040377468
161	0xbd8976a7	-0.06712084
162	0x3e069168	0.13141406
163	0x3e022697	0.12710033
164	0x3e0f021d	0.1396565
165	0x3d02f808	0.031974822
166	0xbc91d101	-0.017799856
167	0xbe40aa7a	-0.18815032
168	0xbc977619	-0.01848893
169	0xbddf9454	-0.10916963
170	0x3b2b9293	0.0026179894
171	0xbe429a7c	-0.19004244
172	0xbe3173bb	-0.17329304
173	0xbe3b5433	-0.18293838
174	0xbd433723	-0.047660004
175	0xbd99d0c8	-0.07510525
176	0xbb5741a6	-0.0032845526
177	0x3e31fd06	0.17381677
178	0xbdc2d7e8	-0.09513837
179	0x3e045407	0.12922679
180	0x3b901aa3	0.0043977066
181	0x3c944ded	0.018103564
182	0x3eaa5980	0.33271408
183	0x3d5ede36	0.054411136
184	0x3e9370c4	0.2879697
185	0x3e8f59d0	0.2799821
186	0x3e78248c	0.24232692
187	0x3e086152	0.13318375
188	0x3e1a7718	0.15084493
189	0x3e47586a	0.19467321
190	0xbf0c1d5d	-0.54732305
191	0x3e23bf57	0.15990959
192	0x3e887841	0.26654246
193	0xbcadda20	-0.021222174
194	0x3e03334e	0.1281254
195	0x3e81eedc	0.25377548
196	0x3e3d8e7c	0.18511385
197	0xbe295f51	-0.16540267
198	0x3c9314c4	0.017954238
199	0xbe8bf4ba	-0.2733515
200	0xbe237a9c	-0.1596474
201	0x3ce2eef3	0.02770183
202	0x3e1b41e3	0.15161853
203	0xbe097955	-0.13425191
204	0x3e28763a	0.1645135
205	0x3deb4a66	0.114888
206	0xbd005696	-0.031332575
207	0xbdf69f12	-0.12042059
208	0x3bd38855	0.006455461
209	0xbcd9b543	-0.02657569
210	0x3e28dccf	0.16490482
211	0x3b33d09b	0.002743757
212	0xbd702eec	-0.0586385
213	0xbe1ff1ff	-0.15619658
214	0x3e19b858	0.15011728
215	0xbe3bf162	-0.18353799
216	0x3da31651	0.07963241
217	0xbd77f9fc	-0.060541138
218	0x3d151600	0.036397934
219	0x3ddc4792	0.107558385
220	0xbdc1ecf4	-0.09469023
221	0xbd8b5005	-0.06802372
222	0x3c658377	0.014008394
223	0xbe42b251	-0.19013335
224	0xbe5d2d8b	-0.21599405
225	0xbe56ff57	-0.20995842
226	0x3ca0fe23	0.019652432
227	0x3d1118df	0.03542411
228	0xbe0fe984	-0.14053923
229	0x3e08bb6e	0.13352749
230	0x3ee514bd	0.44742385
231	0x3dacbef6	0.084348604
232	0x3e1685ba	0.1469945
233	0xbd8fb814	-0.07017532
234	0x3d5d9b0c	0.054102942
235	0x3e2f2156	0.1710256
236	0x3e5d403f	0.21606539
237	0xbdc999d7	-0.09843796
238	0x3d3125f6	0.043249093
239	0x3eee196b	0.46503767
240	0x3e09af0a	0.13445678
241	0x3e7493a0	0.2388444
242	0x3ea81762	0.3283034
243	0x3e5686fc	0.2094993
244	0x3e64f8fc	0.22360605
245	0x3eac6108	0.3366778
246	0x3e1a9efc	0.1509971
247	0x3e9687cb	0.29400477
248	0x3ea2f28f	0.31825683
249	0x3e5e2105	0.21692283
250	0x3e7d7245	0.24750622
251	0x3d83fb3e	0.06444405
252	0x3e9a3aad	0.3012289
253	0x3e8c7b6e	0.2743792
254	0xbe3ef0bb	-0.18646519
255	0x3d9b284d	0.07576046

l4.bias f4 [20]
0	0xbea273b9	-0.31728914
1	0xbdf99d71	-0.12188233
2	0x3d905d1f	0.070490114
3	0x3e7976c7	0.24361716
4	0xbdc4111d	-0.095735766
5	0xbc9e9a24	-0.01936061
6	0x3e62e136	0.22156224
7	0xbe550054	-0.20800906
8	0xbd2e1aac	-0.042505905
9	0x3c3dd206	0.011585718
10	0xbd76c02e	-0.06024187
11	0xbe187ff5	-0.14892562
12	0xbc90723f	-0.017632602
13	0x3d32cfa7	0.043655064
14	0xbd1813d0	-0.03712827
15	0xbdc7bbd3	-0.097526215
16	0xbd4edfd8	-0.050506443
17	0x3e2ea47e	0.17054936
18	0xbdaf8a5e	-0.08571313
19	0xbc2e7748	-0.010648556

l5.weight f4 [20, 20]
0	0xbf8e5b9d	-1.1121708
1	0xbd8bd6ee	-0.06828104
2	0x3dc1a659	0.094555564
3	0x3e1ffab2	0.15622976
4	0xbe095e34	-0.13414842
5	0x3e0624a6	0.13099918
6	0xbe24c14e	-0.16089365
7	0x3e8901d1	0.26759198
8	0xbd1c4565	-0.038152117
9	0xbd5d5c02	-0.054042824
10	0xbd4513aa	-0.048114456
11	0x3ee36660	0.44414043
12	0xbd93b272	-0.0721177
13	0xbe603597	-0.21895443
14	0xbe426009	-0.18981947
15	0x3e619b76	0.2203196
16	0x3d74a9a1	0.059732083
17	0xbdae48c6	-0.08509974
18	0xbd072d71	-0.03300232
19	0xbcdc4f22	-0.026893202
20	0xbe8b814f	-0.27247092
21	0x3da4b086	0.08041482
22	0x3e37bbe9	0.17942776
23	0xbe0216bf	-0.1270399
24	0x3e1fc0c7	0.15600882
25	0x3db6a3af	0.08917939
26	0xbe0d7cfd	-0.1381721
27	0x3e219609	0.1577989
28	0xbdae7a88	-0.08519465
29	0xbe2d1c08	-0.16905224
30	0xbdfdff60	-0.124022245
31	0x3f0f6ff1	0.56030184
32	0x3d88ac51	0.06673492
33	0x3eae3b0e	0.3402943
34	0xbdc554c8	-0.09635311
35	0x3e29a0b3	0.16565208
36	0x3d034825	0.032051224
37	0x3c3b9f25	0.011451517
38	0x3d1ca44a	0.038242616
39	0xbddd4500	-0.10804176
40	0x3e3903aa	0.18067804
41	0x3e45796d	0.19284602
42	0xbe0d2ad7	-0.13785873
43	0xbc1211fe	-0.0089154225
44	0x3e0891c1	0.1333685
45	0x3d38f2bc	0.045153365
46	0xbd31c667	-0.0434021
47	0xbe1f3fa7	-0.15551625
48	0xbe38db48	-0.18052399
49	0x3bd00aa2	0.006348924
50	0x3da5c331	0.080938704
51	0x3e2a05c9	0.1660377
52	0xbdebe6dd	-0.11518643
53	0xbdd655a5	-0.10465554
54	0xbafb4df5	-0.0019173013
55	0x3e3866c8	0.18007958
56	0xbe014a4a	-0.12625995
57	0x3e38b408	0.18037426
58	0xbe282ce8	-0.1642338
59	0x3d8e0dcb	0.069362246
60	0x3da99466	0.08280258
61	0x3e4cde1f	0.20006607
62	0x3e2f43ec	0.17115754
63	0x3e3234ff	0.17403029
64	0x3e26ad13	0.1627696
65	0x3ea1eec6	0.31627482
66	0x3e6d7dd2	0.23192528
67	0xbd9ccf91	-0.07656778
68	0x3ddd9809	0.10820014
69	0x3ea95038	0.33069015
70	0x3da2930e	0.07938205
71	0xbe626681	-0.22109415
72	0x3eb4113d	0.35169402
73	0xbe6cc535	-0.23122104
74	0xbe13e7f9	-0.1444396
75	0xbd7d115a	-0.061784126
76	0xbdb30979	-0.08742041
77	0x3dd032e1	0.101659544
78	0xbd841f04	-0.06451228
79	0xbe31e6b3	-0.17373161
80	0xbe4bf82b	-0.19918887
81	0xbcabd2f1	-0.020974608
82	0x3d247b50	0.040156662
83	0xbe01e059	-0.12683238
84	0xbda66a73	-0.08125772
85	0x3dd7792d	0.10521159
86	0xbce0ec9f	-0.02745658
87	0xbc201a83	-0.009771946
88	0x3df85abc	0.12126681
89	0xbe421130	-0.18951869
90	0x3e112a6f	0.14176343
91	0xbe199470	-0.1499803
92	0xbe5bf1ff	-0.21479033
93	0xbd4da2b2	-0.050203986
94	0x3d1d851e	0.03845703
95	0xbe288980	-0.16458702
96	0x3d12858c	0.03577189
97	0x3d41ace9	0.04728404
98	0xbdfc3d30	-0.12316358
99	0x3e22c008	0.15893567
100	0xbd9ed860	-0.07756114
101	0xbd9511f4	-0.07278815
102	0xbe62f1cd	-0.22162552
103	0xbce6ccd3	-0.02817384
104	0xbdbf4dde	-0.09341024
105	0x3da31549	0.07963044
106	0xbcbb6ae5	-0.02287812
107	0x3ed9a29b	0.4250687
108	0xbdc7b11a	-0.09750576
109	0xbda9ff67	-0.08300667
110	0x3ca828b4	0.020527221
111	0x3f178da6	0.59200513
112	0x3e17806c	0.14795083
113	0x3ea5c7cb	0.32378992
114	0x3dc15936	0.09440844
115	0xbcafb355	-0.021447817
116	0x3d9ef57d	0.07761667
117	0xbe23d488	-0.15999043
118	0xbe40efa5	-0.18841417
119	0x3e14576f	0.14486478
120	0xbed3f735	-0.41399541
121	0x3e20dc2e	0.15708992
122	0xbe3328d8	-0.1749605
123	0x3e10d43b	0.1414346
124	0x3c0d2be5	0.008616422
125	0x3e089485	0.13337906
126	0x3d573e52	0.052549668
127	0x3eac0e3a	0.33604604
128	0x3d7030d1	0.058640305
129	0x3d3abee0	0.04559219
130	0xbd9a8d78	-0.07546514
131	0x3ef5c875	0.480045
132	0xbd9fdf74	-0.07806292
133	0x3f08c198	0.534204
134	0xbc8a2572	-0.016863558
135	0xbcdfcd2a	-0.02731951
136	0xbdec9fde	-0.1155393
137	0xbe36469f	-0.17800377
138	0xbe518e50	-0.20464444
139	0xbc699b24	-0.01425818
140	0xbedc8662	-0.43071276
141	0xbe1af628	-0.15132964
142	0xbd2ff405	-0.042957325
143	0x3da0e08a	0.078553274
144	0xbd493a0d	-0.049127627
145	0xbd80eb10	-0.062948346
146	0x3cc8049e	0.024416264
147	0x3e46115a	0.19342557
148	0x3a8ed58d	0.0010897383
149	0x3e166f30	0.14690852
150	0xbcb0a454	-0.021562733
151	0x3f1f4062	0.62207615
152	0xbd9eb619	-0.07749576
153	0x3efcaf96	0.4935271
154	0x3e450014	0.19238311
155	0x3db49c19	0.08818836
156	0x3aa25eb4	0.0012387843
157	0x3d5fb78a	0.054618396
158	0xbda50f9b	-0.08059617
159	0xbe224e24	-0.15850121
160	0x3da1bad0	0.0789696
161	0x3d8f6449	0.0700155
162	0x3df2f2a9	0.1186269
163	0xbe35fb98	-0.17771757
164	0xbe2eeb8b	-0.1708204
165	0x3bda7df1	0.0066678454
166	0xbe14551d	-0.14485593
167	0xbd6a3ee5	-0.057188887
168	0xbe2fce22	-0.17168477
169	0x3e2ed964	0.17075115
170	0x3d022c16	0.031780325
171	0xbdbc6745	-0.091993846
172	0xbe113c2c	-0.1418311
173	0x3d9fadf7	0.07796853
174	0x3e4c881a	0.19973794
175	0x3cd5cd7d	0.026098961
176	0x3df3ee57	0.11910694
177	0xbe4839be	-0.19553277
178	0xbdab2bc0	-0.08357954
179	0xbdf075c7	-0.11741214
180	0x3dd6cc43	0.104881786
181	0x3d4074dc	0.046986446
182	0x3a872844	0.0010311683
183	0x3df74059	0.1207282
184	0xbe145603	-0.14485936
185	0x3d2dcea3	0.042433392
186	0x3e99acb2	0.3001457
187	0xbc4af71c	-0.012388017
188	0x3d343bd0	0.044002354
189	0x3e859178	0.26087546
190	0x3e277dbd	0.16356559
191	0xbee41b89	-0.44552258
192	0x3d8b13d2	0.0679089
193	0xbdc89203	-0.097934745
194	0x3e1fa3da	0.15589848
195	0x3db9cedc	0.090726584
196	0x3e15e0a5	0.14636476
197	0x3e9e8cd0	0.30966806
198	0x3c5d08b0	0.013490841
199	0x3db698f4	0.08915892
200	0x3d6f118a	0.058366336
201	0xbe40006e	-0.18750164
202	0xbd05bc47	-0.03265026
203	0xbbf0bc01	-0.0073466306
204	0xbc5a990f	-0.013342156
205	0xbded4a7a	-0.11586471
206	0xbd700e3a	-0.058607318
207	0x3e1b3afc	0.1515922
208	0xbe1b8d10	-0.1519053
209	0x3d744cd8	0.059643596
210	0x3e127672	0.14302996
211	0xbe1c7878	-0.1528033
212	0xbaae78bc	-0.0013311128
213	0x3df08c79	0.11745543
214	0xbdafaea3	-0.08578231
215	0x3e1d1762	0.15340951
216	0x3e3172fe	0.17329022
217	0x3d9089b1	0.070575126
218	0xbe45484d	-0.19265862
219	0x3d43f461	0.04784048
220	0x3dc53da5	0.096308984
221	0x3e3c8000	0.18408203
222	0xbe89f343	-0.26943406
223	0x3cf8e5bf	0.030382989
224	0xbe2d797a	-0.16940871
225	0x3e161a12	0.14658383
226	0xbd1abbf8	-0.037776917
227	0x3f03f388	0.51543474
228	0x3e21c9e7	0.15799676
229	0xb9c6a3a4	-0.00037887425
230	0x3da6b1f3	0.0813941
231	0x3f08f09f	0.5349216
232	0xbcbad90a	-0.02280857
233	0x3e8c475a	0.27398187
234	0x3e1ecf45	0.15508755
235	0x3dd2181e	0.10258506
236	0xbd8747c7	-0.06605487
237	0xbe2b5829	-0.16732849
238	0xbd19a31e	-0.037509076
239	0xbe0b969f	-0.13631676
240	0x3cbfc1a2	0.023407761
241	0x3d7033c7	0.05864313
242	0x3d5dfbdc	0.05419527
243	0xbe12b75d	-0.1432776
244	0x3d69c6c3	0.05707432
245	0xbe2eff03	-0.17089467
246	0x3a2340a5	0.00062275893
247	0xbdb87106	-0.090059325
248	0xbd8a5233	-0.067539595
249	0x3dfde3bd	0.12396953
250	0x3e4b7625	0.19869287
251	0xbcbd47f3	-0.023105597
252	0x3d031b90	0.032008708
253	0xbd9571be	-0.07297085
254	0xbe20427e	-0.15650365
255	0xbc8acb13	-0.016942536

l5.bias f4 [20]
0	0xbe60707a	-0.21917906
1	0xbe8680a9	-0.26270035
2	0xbe199659	-0.1499876
3	0x3e9e03ee	0.30862373
4	0x3cc641dc	0.024201326
5	0xbee50f59	-0.44738272
6	0xbed034e2	-0.40665346
7	0xbe5d6c5d	-0.21623369
8	0x3d1666e5	0.03671922
9	0x3e32a5d3	0.1744607
10	0xbc7a83cb	-0.015290211
11	0xbe557efb	-0.2084922
12	0xbd6f9ec5	-0.058501024
13	0xbe637582	-0.22212794
14	0x3e841902	0.2580033
15	0xbde16f46	-0.11007552
16	0xb98d50ca	-0.00026953808
17	0xbb57cabd	-0.0032927238
18	0x3e6c5c65	0.2308212
19	0x3e19f453	0.15034609

l6.weight f4 [20, 20]
0	0x3db63e00	0.08898544
1	0x3d5a872a	0.05335156
2	0xbb1d003b	-0.0023956436
3	0xbbeec8be	-0.007287114
4	0xbded5cad	-0.11589942
5	0xbce74551	-0.028231295
6	0xbd622613	-0.05521209
7	0xbdc67c55	-0.09691683
8	0xbd0451a2	-0.032304414
9	0x3cb81edd	0.022475654
10	0x3e419669	0.18905033
11	0x3e15659f	0.14589547
12	0xbd87c680	-0.06629658
13	0xbdffe55c	-0.12494919
14	0x3e0188c5	0.1264983
15	0xbe36273d	-0.17788406
16	0xbe0179fb	-0.12644188
17	0xbaddeaaf	-0.0016930903
18	0xbe23dd7c	-0.16002458
19	0xbe285b13	-0.16440992
20	0x3ef73f8e	0.48290676
21	0xbf3e0bc2	-0.7423669
22	0xbdb50971	-0.088396914
23	0x3e167be6	0.14695701
24	0xbd0852b9	-0.033282015
25	0xbf1bdb53	-0.6088154
26	0xbf033fcd	-0.5126923
27	0xbee1975a	-0.44060785
28	0x3c7c1012	0.015384691
29	0xbdb27302	-0.08713342
30	0xbe4a1cfc	-0.19737619
31	0xbf2c1530	-0.6721983
32	0x3cd2915f	0.025704084
33	0x3df00295	0.117192425
34	0x3ddbb229	0.10727341
35	0x3e16b92c	0.14719075
36	0xbe0b2960	-0.13590002
37	0xbed3906a	-0.41321117
38	0x3e7a5c59	0.2444929
39	0x3e23fd14	0.1601451
40	0xbdaecc76	-0.085350916
41	0x3ed5dc7d	0.41769782
42	0xbcc25067	-0.02371998
43	0xbde0b317	-0.10971659
44	0x3ce3119e	0.027718361
45	0xbe9a6794	-0.3015715
46	0xbed7708b	-0.4207805
47	0x3ed2d023	0.4117442
48	0x3b2092b9	0.0024501516
49	0x3abe8a0c	0.0014536991
50	0x3e3e027e	0.18555638
51	0xbe870a78	-0.26375175
52	0xbe184a96	-0.14872202
53	0x3d848f73	0.06472673
54	0xbe47f95a	-0.19528714
55	0x3ed935db	0.424239
56	0xbe505797	-0.20345913
57	0x3ece7d5f	0.40330026
58	0xbd210a9e	-0.039316766
59	0xbbc56382	-0.006023825
60	0xbf8d12f8	-1.1021414
61	0x3f27b98b	0.6551749
62	0xbdf90755	-0.121596016
63	0x3e1a4529	0.15065445
64	0xbe0ba58d	-0.13637371
65	0x3e88d198	0.26722407
66	0xbea2c9de	-0.31794637
67	0xbeb8a509	-0.36063412
68	0xbe04e5f7	-0.1297835
69	0xbda339ca	-0.07970007
70	0x3d030caf	0.031994518
71	0x3eb3c3a5	0.35110202
72	0x3e02f0cc	0.12787169
73	0x3dc52f17	0.09628122
74	0x3ddb984e	0.10722409
75	0xbe8960c4	-0.2683164
76	0xbcb60ee3	-0.022223895
77	0x3ead7569	0.3387864
78	0xbe332807	-0.17495738
79	0x3e80514f	0.25062034
80	0xbea8db93	-0.32980022
81	0xbf08c2fe	-0.53422534
82	0xbe407bd4	-0.18797237
83	0x3eb900a4	0.361333
84	0x3e122bcb	0.14274518
85	0xbf5f1a48	-0.87149477
86	0xbeef35e3	-0.467208
87	0xbeeee8b0	-0.466619
88	0xbe3c32f0	-0.18378806
89	0x3e71de8d	0.23620053
90	0xbd66cf92	-0.0563503
91	0xbf49a03a	-0.7876011
92	0x3b8c97b5	0.004290546
93	0x3d9341f9	0.07190318
94	0xbb2e2899	-0.002657449
95	0x3e4eb494	0.20186073
96	0xbe12c26a	-0.14331976
97	0xbf05f54b	-0.5232741
98	0x3ea11910	0.31464434
99	0x3e625556	0.22102866
100	0xbdfc992a	-0.12333901
101	0x3dab4c27	0.08364134
102	0xbe326699	-0.1742195
103	0xbdf23e50	-0.118282914
104	0x3e06e27f	0.13172339
105	0x3e172aa3	0.14762358
106	0x3e32bae4	0.17454106
107	0xbe3714fe	-0.17879102
108	0x3e39cd05	0.18144615
109	0xbdc6b8d9	-0.09703226
110	0x3cb2e634	0.021838285
111	0x3e10bc4b	0.14134328
112	0x3d0569d5	0.032571632
113	0x3e0427f4	0.12905866
114	0x3e167922	0.14694646
115	0x3e334ca1	0.175097
116	0x3c2a1f94	0.010383505
117	0xbd31f957	-0.04345068
118	0xbde511b3	-0.111850165
119	0x3e15ac01	0.14616396
120	0x3f977912	1.1833823
121	0xbf00e55c	-0.50349975
122	0xbe12194a	-0.1426746
123	0x3de581b7	0.11206382
124	0x3e0af37d	0.13569446
125	0xbf139b7b	-0.5765912
126	0xbe7e9fa7	-0.2486559
127	0x3e8d2210	0.2756505
128	0x3dcd2be2	0.100181356
129	0xbe26a4a0	-0.16273737
130	0x3d979030	0.074005485
131	0x3f4e2618	0.80526876
132	0x3d5f3d49	0.054501805
133	0x3f949c4a	1.1610196
134	0x3db6d1ff	0.08926772
135	0x3cd2fb5e	0.025754627
136	0x3e1cb55d	0.1530356
137	0xbe1a2f4c	-0.15057105
138	0xbef59d53	-0.4797159
139	0xbeaf2f2c	-0.34215677
140	0xbe16f47e	-0.14741704
141	0xbe49f430	-0.19722056
142	0x3e446194	0.19177848
143	0xbd964f77	-0.073393755
144	0xbe1544c8	-0.14577019
145	0x3d1922ff	0.03738689
146	0xbe3b3213	-0.1828082
147	0xbd95f1e4	-0.073215276
148	0x3e2eac0a	0.17057815
149	0xbd1a8836	-0.037727557
150	0x3de9eca7	0.11422091
151	0xbd07af82	-0.03312636
152	0x3dffede2	0.124965444
153	0xbdc9675e	-0.09834169
154	0xbd5ae31e	-0.053439252
155	0xbe2521a6	-0.16126117
156	0x3d349e3d	0.04409622
157	0xbe1b638e	-0.15174696
158	0x3e23dc04	0.16001898
159	0xbd91412c	-0.07092509
160	0xbd040304	-0.03222944
161	0xbe3c76ed	-0.18404742
162	0x3d9fd2a2	0.07803847
163	0xbcf88b7f	-0.030339954
164	0xbc832d63	-0.016012853
165	0xbdc1db0d	-0.09465609
166	0xbe31dbcd	-0.17369004
167	0x3c586384	0.01320732
168	0xbe243f68	-0.16039813
169	0xbe2efe3c	-0.1708917
170	0x3d11c249	0.035585675
171	0x3ceb7da7	0.02874644
172	0xbdb90cbb	-0.09035631
173	0xbddfe65d	-0.1093261
174	0x3ddbacc4	0.10726312
175	0x3d7d4b0e	0.061839156
176	0x3e11a550	0.14223218
177	0x3e265df3	0.16246776
178	0xbe35fcba	-0.17772189
179	0x3e22a150	0.15881848
180	0xbe104cd7	-0.14091812
181	0xbe258c58	-0.16166818
182	0x3dc9ee14	0.09859863
183	0xbdd47b02	-0.103750244
184	0xbcfb79b0	-0.030697674
185	0x3e4e2a42	0.20133308
186	0xbe250ce7	-0.16118203
187	0x3d9938e3	0.074815534
188	0x3c199ed8	0.00937625
189	0x3e4197bf	0.18905543
190	0xbdd94551	-0.10608924
191	0xbe124662	-0.14284661
192	0xbc837c42	-0.016050462
193	0x3e410965	0.1885124
194	0xbd82092e	-0.06349407
195	0x3d535706	0.051596664
196	0x3e327338	0.17426765
197	0xbccb5ade	-0.024823602
198	0xbe305f9b	-0.1722397
199	0xbc79ef83	-0.015254858
200	0xbf834e37	-1.0258244
201	0x3eb40e8f	0.35167357
202	0x3ace85e9	0.0015756461
203	0xbe2478c9	-0.16061701
204	0x3de47c52	0.11156525
205	0x3f9746ac	1.1818442
206	0x3f30c6ab	0.69053143
207	0x3f1326e9	0.5748125
208	0x3e22eea1	0.15911342
209	0xbd20c21d	-0.03924762
210	0x3e2cd17d	0.16876788
211	0x3f8219b0	1.0164089
212	0x3dec7305	0.11545376
213	0x3e41e1e0	0.1893382
214	0xbe0a9c85	-0.1353627
215	0x3ec51a4b	0.38496622
216	0x3e107605	0.14107521
217	0x3ef00623	0.46879682
218	0xbc569d7a	-0.013099069
219	0x3d35fe51	0.04443199
220	0xbf7ca524	-0.98689485
221	0xbf776e3a	-0.9665257
222	0x3e55ab89	0.20866217
223	0x3e2bc7d9	0.16775455
224	0x3c04bb8d	0.008101356
225	0xbf14eba1	-0.5817204
226	0xbe2e692d	-0.17032309
227	0xbef36a5a	-0.47542077
228	0xbe3f7a9e	-0.18699118
229	0x3e085d68	0.13316882
230	0x3c0434dc	0.008069243
231	0xbf7d4551	-0.98933893
232	0x3e1efde3	0.15526538
233	0x3c492608	0.012277134
234	0x3e76df1c	0.24108547
235	0xbd56fc8f	-0.052486952
236	0x3d864b78	0.06557363
237	0xbfbe2281	-1.485428
238	0x3e78bfec	0.24291962
239	0x3df70401	0.120613106
240	0xbf9a9163	-1.2075619
241	0xbf3797e2	-0.7171613
242	0xbe0c524f	-0.13703273
243	0x3e8b4311	0.27199605
244	0xbe12dd91	-0.14342333
245	0xbf25c84d	-0.6475876
246	0xbea5136b	-0.32241377
247	0xbed8768b	-0.4227794
248	0xbe25a3ad	-0.16175719
249	0x3e6e0ba7	0.23246633
250	0xbc27e47d	-0.010247347
251	0xbf65afe3	-0.89721507
252	0xbd419cb1	-0.047268573
253	0x3e508112	0.20361736
254	0xbc116b71	-0.008875714
255	0x3e182bb5	0.14860423

l6.bias f4 [20]
0	0xbd0ddf34	-0.03463669
1	0x3e85761e	0.2606668
2	0x3dd662e1	0.104680784
3	0x3df7cb42	0.12099315
4	0x3df33b0e	0.11876498
5	0xbe063bf3	-0.13108806
6	0x3efd2093	0.49438915
7	0xbe35fa4c	-0.17771262
8	0xbe41b539	-0.18916787
9	0xbe4a5aa7	-0.19761144
10	0x3ce9ad64	0.028525062
11	0xbe05d82f	-0.13070749
12	0x3e8283f6	0.25491303
13	0x3dc580d9	0.09643716
14	0xb837a732	-4.3786313e-05
15	0x3c2af5cd	0.01043458
16	0x3e932452	0.28738648
17	0x3e2b5fbf	0.16735743
18	0x3ec42dee	0.38316292
19	0xbe1e37a0	-0.15450907

l7.weight f4 [20, 20]
0	0x3e268444	0.16261393
1	0xbd5d5a83	-0.054041397
2	0x3deea87b	0.11653229
3	0x3dce109f	0.10061764
4	0xbd312cd8	-0.043255657
5	0x3dafff53	0.08593621
6	0xbe0f194f	-0.13974498
7	0xbc97dd88	-0.018538252
8	0x3db7de70	0.089779735
9	0x3e34835c	0.17628235
10	0x3bbbffdb	0.0057372875
11	0x3d8a3242	0.06747867
12	0xbe2e7c45	-0.17039593
13	0x3d9c3191	0.076266415
14	0xbe46de8e	-0.19420835
15	0x3e27351e	0.16328856
16	0xbe45e080	-0.19323921
17	0x3d3ed6ee	0.04659169
18	0xbdc41819	-0.09574909
19	0xbe0d8886	-0.13821611
20	0xbd3b760c	-0.045766875
21	0x3e7109c3	0.2353888
22	0xbeb0b2bc	-0.34511364
23	0x3e3d1df9	0.18468465
24	0x3e30b99c	0.17258304
25	0xbd8623f0	-0.06549823
26	0xbe21eb0b	-0.15812318
27	0x3d4a377f	0.04936933
28	0xbe1acddd	-0.15117593
29	0x3e267158	0.16254175
30	0xbeb1fd10	-0.34763384
31	0x3e9f9f9f	0.3117647
32	0x3dcd7a9b	0.10033151
33	0x3dda5259	0.10660238
34	0x3e9c3694	0.3051039
35	0x3d06be5c	0.032896385
36	0x3e927278	0.28602958
37	0xbe176458	-0.14784372
38	0xbf0e85c9	-0.5567289
39	0xbe3e149d	-0.18562551
40	0xbe491f6e	-0.19640896
41	0x3e4221b4	0.18958169
42	0xbcaee554	-0.021349587
43	0xbd347b65	-0.04406299
44	0x3c862530	0.016375154
45	0x3d8112a5	0.06302384
46	0xbfbca1e0	-1.47369
47	0x3e257721	0.16158725
48	0x3cebc7f7	0.028781874
49	0x3e2a728a	0.16645256
50	0x3e9b5d2f	0.3034453
51	0xbea0e24d	-0.31422654
52	0xbd227bfd	-0.039669026
53	0xbe5f303c	-0.21795744
54	0x3c8a9f83	0.016921764
55	0x3d734c54	0.059398964
56	0xbd2b3952	-0.04180271
57	0x3d535304	0.05159284
58	0x3c44c57f	0.012009977
59	0xbd9f3d9b	-0.07775422
60	0x3dcf5e8f	0.101254575
61	0x3d3ef184	0.046617046
62	0x3f129b40	0.5726814
63	0x3eafcd57	0.3433635
64	0x3e64879d	0.22317357
65	0xbdb7ab37	-0.089682035
66	0xbf8968cc	-1.0735106
67	0xbe30cbc4	-0.1726523
68	0x3d553478	0.05205199
69	0xbd8fb1cc	-0.07016334
70	0x3e07e1bb	0.13269703
71	0x3e9207ad	0.2852148
72	0x3ecb33b7	0.39687893
73	0x3eaf8ba0	0.34286213
74	0x3e93ee8d	0.28892937
75	0x3e9add6d	0.3024706
76	0x3db8c969	0.09022791
77	0xbd99af31	-0.07504118
78	0x3df11814	0.11772171
79	0x3d22289c	0.03958951
80	0xbd82968c	-0.06376371
81	0x3c5d44ef	0.013505205
82	0xbfb18fab	-1.3871969
83	0x3f4f7a5f	0.810461
84	0xbd2b6f4c	-0.041854188
85	0xbe0e8467	-0.13917695
86	0xc04c8809	-3.195803
87	0xbb99f298	-0.004698109
88	0x3d85ebb1	0.06539095
89	0x3bc17fcc	0.005905127
90	0xbf51c294	-0.8193753
91	0x3e342266	0.17591247
92	0xbbfd9fc2	-0.007739992
93	0x3e1c82b0	0.15284228
94	0x3e67abe6	0.22624168
95	0x3d9d7587	0.07688432
96	0x3e6ad6dc	0.22933525
97	0xbda1fe0e	-0.07909785
98	0xbe7d0ca0	-0.24711847
99	0x3e03f5da	0.12886754
100	0x3e517ad7	0.20457016
101	0x3e2235b7	0.15840803
102	0x3e988aee	0.29793495
103	0x3e802601	0.25028995
104	0xbe7d85ef	-0.24758123
105	0x3de34210	0.11096585
106	0x3cd0df4f	0.025497107
107	0xbddf33e6	-0.10898571
108	0x3d39d87f	0.045372482
109	0x3c67d36d	0.014149529
110	0x3e13f334	0.14448243
111	0xbf604b18	-0.87614584
112	0xbe0e7dc5	-0.13915165
113	0xbc9600bf	-0.018310903
114	0x3e1416ac	0.14461774
115	0x3dff4c14	0.124656826
116	0x3d921b1b	0.07134076
117	0x398bedf3	0.00026689432
118	0x3f7f96b1	0.9983931
119	0xbcf22f8c	-0.029563688
120	0x3e3208c4	0.17386156
121	0xbe36caef	-0.1785085
122	0xbe1b75d1	-0.15181662
123	0xbd1e500d	-0.03865056
124	0xbc80724f	-0.015679507
125	0xbd8f7546	-0.0700479
126	0x3dd91391	0.10599435
127	0xbe0ac734	-0.13552552
128	0xbdfea128	-0.12433082
129	0x3da0c5b6	0.0785021
130	0xbe292bd3	-0.16520624
131	0x3dd3f706	0.1034985
132	0xbdf0306d	-0.117279865
133	0x3e1629bb	0.14664356
134	0x3d4d63ac	0.050143883
135	0xbe278769	-0.16360249
136	0x3e0879f3	0.1332777
137	0x3deed112	0.11660971
138	0xbdd7653c	-0.10517356
139	0x3e17b46c	0.14814919
140	0xbe0dd3d6	-0.1385034
141	0x3ea898a0	0.32928944
142	0x3ec85744	0.39129078
143	0x3ed28743	0.41118822
144	0x3e90bb2f	0.2826781
145	0xbcdf4760	-0.027255714
146	0x3fe65fb7	1.799796
147	0xbe2598c6	-0.1617156
148	0x3cc976de	0.024592813
149	0xbdc229e9	-0.0948065
150	0x3e0f71d0	0.1400826
151	0x3ebbbd90	0.36668062
152	0x3e9d06a1	0.3066912
153	0x3dc0f11f	0.0942099
154	0x3e96b300	0.2943344
155	0x3e4963b0	0.19666934
156	0xbbc8fea9	-0.0061338735
157	0xbe354ce5	-0.17705114
158	0xbec68aa6	-0.38777655
159	0xbd5c6878	-0.053810567
160	0xbde2635b	-0.11054107
161	0xbdb7a795	-0.089675106
162	0xbdbf4b7c	-0.093405694
163	0x3df7f28b	0.12106808
164	0xbe1b3188	-0.15155613
165	0x3dc29f32	0.0950302
166	0x3d24a3f2	0.040195413
167	0x3e2d166a	0.16903082
168	0x3e454ac9	0.1926681
169	0x3dc0c7db	0.094131194
170	0xbe14596c	-0.14487237
171	0x3e19e9d3	0.15030603
172	0xbccabec2	-0.024749164
173	0xbd9cf551	-0.07663978
174	0xbe4e578b	-0.20150582
175	0x3da875b1	0.08225573
176	0xbd87df67	-0.066344075
177	0xbd84e41f	-0.06488823
178	0xbe1b4a55	-0.15165074
179	0xbc6a29f3	-0.014292228
180	0x3e247122	0.16058782
181	0x3e85eb5c	0.26156127
182	0xbf286c77	-0.65790504
183	0x3e6cc987	0.23123752
184	0x3ea13d9a	0.3149231
185	0x3c444b9b	0.011980916
186	0xc0078384	-2.117402
187	0x3d21a539	0.03946421
188	0xbe412ed4	-0.1886552
189	0x3e180090	0.14843965
190	0xbec27033	-0.37976226
191	0x3df5a94b	0.11995181
192	0xbc9526ec	-0.018207036
193	0x3c9a75f3	0.01885507
194	0x3d2f6acc	0.04282646
195	0xbcb704a9	-0.02234109
196	0x3e80b9d7	0.25141785
197	0xbd1360d5	-0.035981018
198	0xbf210e8c	-0.6291282
199	0x3c8e3eaa	0.017363865
200	0x3db9b899	0.09068412
201	0x3e079165	0.13239057
202	0x3dbe27a9	0.09284908
203	0xbc16fe31	-0.009215877
204	0xbe2230cf	-0.15838932
205	0x3dfc2bf7	0.12313073
206	0x3e1e523f	0.15461062
207	0xbe0aa4e6	-0.13539466
208	0x3dca4e55	0.09878222
209	0x3def0d21	0.11672426
210	0x3e1053f1	0.14094521
211	0xbe88997f	-0.26679608
212	0x3e12caa1	0.1433511
213	0x3ba3a02a	0.0049934583
214	0x3dc93120	0.09823823
215	0x3e02edf4	0.12786084
216	0xbdbdced4	-0.09267965
217	0x3c0bca5c	0.008532133
218	0x3ebbd486	0.3668558
219	0xbe3efefa	-0.18651953
220	0xbd139237	-0.036028113
221	0xbcd82729	-0.02638586
222	0x3de7ce83	0.11318686
223	0x3e93d811	0.28875783
224	0x3e835efd	0.25658408
225	0xbe12a6e1	-0.14321472
226	0xbf15345a	-0.5828301
227	0xbe1ab0c1	-0.15106489
228	0xbcf3474a	-0.02969708
229	0x3dc7bc56	0.09752719
230	0xbe11e2ef	-0.14246725
231	0x3e0766a8	0.13222754
232	0xbd04e8b3	-0.03244848
233	0x3e755e8b	0.23961847
234	0x3e88dc44	0.2673055
235	0x3e885921	0.266305
236	0x3e825734	0.25457156
237	0xbe0b24cb	-0.13588254
238	0xbdb43f69	-0.08801157
239	0xbdaf33c3	-0.08554795
240	0x3e06dea1	0.13170864
241	0xbe3a1e5e	-0.18175647
242	0xbe00e2ff	-0.12586592
243	0xbde35010	-0.11099255
244	0x3c8948b7	0.016758306
245	0x3ce5eb3e	0.028066274
246	0xbf781410	-0.9690561
247	0xbd6aa6a0	-0.057287812
248	0xbd7c6f08	-0.061629325
249	0xbbf91f13	-0.0076025813
250	0x3e12561c	0.1429066
251	0xbeb2bbce	-0.3490891
252	0xbb8bd0c0	-0.0042668283
253	0x3d9c2bf3	0.0762557
254	0x3d93d793	0.07218852
255	0x3d2a94e4	0.0416459

l7.bias f4 [20]
0	0xbdf57736	-0.11985628
1	0x3e31fa52	0.17380646
2	0x3ef0f4ad	0.47061673
3	0x3e8b1aa4	0.27168763
4	0x3b626089	0.0034542403
5	0x3e2ee94d	0.17081185
6	0xbe785d91	-0.24254443
7	0x3ddfc7a7	0.109267525
8	0xbdba1f54	-0.090880066
9	0x3e5b8a3b	0.2143945
10	0xbed63603	-0.41838083
11	0x3df7d297	0.12100714
12	0x3e831c9d	0.25607768
13	0xbe43f816	-0.19137606
14	0x3d25d138	0.04048273
15	0xbd4a0cd5	-0.049328644
16	0x3e74466e	0.23854992
17	0xbd80a894	-0.06282154
18	0x3e5d9676	0.21639428
19	0x3e05b08d	0.1305563
