Project 1/model.pt (torch, 19133 bytes, 19 tensors)

l1.weight f4 [20, 5]
0	0xbee969d8	-0.45588565
1	0x3e36ab8a	0.17838874
2	0xbdf76cfc	-0.12081334
3	0xbd431635	-0.0476286
4	0xbe592e6d	-0.21209116
5	0xbd2b2cbb	-0.041790705
6	0x3e59b01b	0.21258585
7	0x3ef9755b	0.48722348
8	0x3e77d1cf	0.2420113
9	0xbe64c23d	-0.22339721
10	0x3ede68cf	0.43439338
11	0x3e0d3477	0.13789545
12	0x3eb2b645	0.34904686
13	0xbd971bb7	-0.07378333
14	0x3ef24c19	0.47323683
15	0x3e29f29f	0.16596459
16	0x3b150029	0.002273569
17	0x3ec5bcac	0.38620508
18	0xbe17d2dc	-0.1482653
19	0x3e617f77	0.2202128
20	0xbe0ea1da	-0.13928929
21	0xbd89bde8	-0.06725675
22	0xbf134eb6	-0.5754198
23	0x3e7525c1	0.23940183
24	0xbe849769	-0.25896767
25	0xbf07e6f5	-0.5308679
26	0x3e4be83a	0.19912806
27	0xbdada042	-0.084778324
28	0xbcddb3fd	-0.027063364
29	0xbe161b75	-0.14658912
30	0xbe0116d8	-0.1260637
31	0x3d3634a4	0.044483796
32	0x3e76254d	0.24037667
33	0x3cd8fd09	0.026487844
34	0xbe036725	-0.12832315
35	0xbf0026f2	-0.50059426
36	0xbe316763	-0.17324595
37	0x3e8d6377	0.27614948
38	0x3d7fb5b9	0.062429164
39	0x3eba7db4	0.3642403
40	0xbeeec706	-0.46636218
41	0x3eff6cfc	0.49887836
42	0x3e497dc4	0.19676882
43	0xbd8adf33	-0.06780853
44	0x3ed06b25	0.40706745
45	0xbe232b21	-0.15934421
46	0x3eeaf03b	0.45886406
47	0x3ed8cbe0	0.42343044
48	0xbe196874	-0.14981252
49	0xbf02b42e	-0.5105618
50	0xbe8c8feb	-0.2745355
51	0xbe6d5ca6	-0.23179874
52	0x3eabc2dc	0.33547103
53	0x3c69d547	0.014272041
54	0x3f114a49	0.56753975
55	0xbeac16fc	-0.33611286
56	0x3e817c51	0.25290158
57	0x3e546a35	0.2074364
58	0x3c86d25c	0.016457729
59	0x3e963bd5	0.29342523
60	0xbed76a89	-0.42073467
61	0xbe1fccbe	-0.15605447
62	0x3e07d4ff	0.13264845
63	0x3de20b10	0.11037266
64	0x3ecfeab0	0.4060874
65	0xbf007af3	-0.50187606
66	0x3d379ee2	0.044829257
67	0xbe7f355c	-0.24922699
68	0x3d100f3b	0.035170775
69	0xbe9086d0	-0.28227854
70	0x3e67cad7	0.22635971
71	0x3e7db1fb	0.24774925
72	0xbef65da0	-0.48118305
73	0xbdaef7c1	-0.08543349
74	0xbe0ad769	-0.13558735
75	0xbf153bfb	-0.5829465
76	0x3f1b27f9	0.6060787
77	0x3e4174be	0.1889219
78	0xbc336d58	-0.010951363
79	0x3e8c1d59	0.2736614
80	0xbeb4942f	-0.35269305
81	0x3dca17e9	0.09867842
82	0xbf270fa9	-0.6525827
83	0xbd93e1c5	-0.072207965
84	0x3ee6c9aa	0.45075732
85	0xbebe232f	-0.37136218
86	0x3e9f6998	0.3113525
87	0x3e668a97	0.22513805
88	0x3d3519e4	0.044214144
89	0x3ea4f4af	0.3221793
90	0x3ebc83ab	0.36819205
91	0xbea06b81	-0.3133202
92	0xbe86ff62	-0.26366717
93	0xbcedc43d	-0.029024238
94	0xbee6e34b	-0.45095286
95	0x3e674b48	0.22587311
96	0x3ebad212	0.36488396
97	0x3d845494	0.064614445
98	0x3d82fd18	0.0639593
99	0x3f2eea9b	0.6832673

l1.bias f4 [20]
0	0xbe9182a4	-0.28419983
1	0xbe2f0aaf	-0.17093919
2	0xbe926e73	-0.2859989
3	0x3e4462eb	0.19178359
4	0xbea66fdf	-0.32507226
5	0x3dcd86c0	0.10035467
6	0x3e7b1bfe	0.24522397
7	0xbddb69a4	-0.10713509
8	0x3f350299	0.7070709
9	0x3d80a84b	0.06282099
10	0xbe1e489e	-0.15457389
11	0x3f3580e0	0.7089977
12	0x3ee7088b	0.45123705
13	0xbed7ea55	-0.4217097
14	0xbd966a9e	-0.07344554
15	0x3e75d9dc	0.24008888
16	0xbe097609	-0.13423933
17	0x3f07ab55	0.52995807
18	0x3ebc8542	0.36820418
19	0x3ebdcc13	0.3706976

l2.weight f4 [20, 20]
0	0x3e4378c5	0.19089039
1	0xbe7d1041	-0.24713232
2	0x3e8f5a33	0.27998504
3	0x3e34cbb5	0.17655833
4	0x3da1f15d	0.079073645
5	0x3eea989b	0.45819554
6	0x3c0ca452	0.008584099
7	0xbad5916a	-0.0016293947
8	0x3ec10183	0.37696466
9	0xbbb01284	-0.005373301
10	0xbe5146b1	-0.20437123
11	0xbd5d2ccb	-0.053997796
12	0xbe92db21	-0.28682807
13	0x3eabb156	0.33533734
14	0xbcdeb2f3	-0.027184939
15	0xbd3ff132	-0.04686088
16	0xbd06ad95	-0.032880384
17	0x3e8a7494	0.27042067
18	0xbe373d54	-0.17894489
19	0x3d1f48c8	0.03888777
20	0x3eb41635	0.35173193
21	0xbbb79d02	-0.0056034336
22	0x3e930343	0.28713426
23	0x3e813a56	0.2523982
24	0x3bc93bcd	0.006141162
25	0x3e5995f5	0.2124861
26	0xbdd2e656	-0.10297839
27	0x3c8272cf	0.015923886
28	0x3de72564	0.112864286
29	0x3d0579f4	0.032587007
30	0x3e54528e	0.20734617
31	0x3ea8a202	0.32936102
32	0xbcd15396	-0.025552552
33	0x3d7437b5	0.05962344
34	0x3e8ab091	0.27087834
35	0x3e0691b3	0.13141517
36	0x3de7c041	0.113159664
37	0x3e807248	0.2508719
38	0xbe25ee96	-0.16204295
39	0x3d58a4bb	0.052891474
40	0x3e057780	0.13033867
41	0xbeb64ce6	-0.35605544
42	0x3d3e3fb6	0.04644748
43	0xbd8721ba	-0.0659823
44	0x3d130e20	0.035902143
45	0x3dadf194	0.08493343
46	0xbd0c57cf	-0.03426343
47	0x3d71e8e6	0.05906
48	0xbd3f84ab	-0.04675738
49	0xbe267fef	-0.1625974
50	0xbc5690d7	-0.013096056
51	0xbcd881d7	-0.0264291
52	0xbcea74a3	-0.02862007
53	0xbdf186cf	-0.11793291
54	0x3e077769	0.13229145
55	0x3db72a50	0.08943617
56	0xbeb88883	-0.3604165
57	0x3e2b390d	0.16720982
58	0x3cbcbc4f	0.023039011
59	0xbc32d85a	-0.01091584
60	0x3c73ab0c	0.014872324
61	0xbe668ddd	-0.22515054
62	0x3d186c8a	0.037212886
63	0xbda593f9	-0.08084864
64	0x3db0d029	0.086334534
65	0x3e1cdb91	0.15318133
66	0x3ed464a7	0.41483042
67	0x3ce56407	0.028001798
68	0x3c876699	0.016528415
69	0x3db0a84d	0.08625851
70	0xbe210ba9	-0.15727104
71	0x3d0a9fa6	0.03384366
72	0xbe3046ef	-0.17214559
73	0xbd766cf2	-0.060162492
74	0x3bb01fad	0.00537487
75	0x3e2266cc	0.15859526
76	0x3db45498	0.088051975
77	0x3e62e6b5	0.2215832
78	0xbe7c8019	-0.2465824
79	0x3e0a3923	0.13498358
80	0x3e6d602e	0.23181221
81	0xbe8b7f6d	-0.27245656
82	0x3de5c794	0.11219707
83	0x3e0c1343	0.13679223
84	0x3ded5d4d	0.11590061
85	0x3e761f4a	0.24035373
86	0xbe8fb364	-0.28066552
87	0xbd795947	-0.060876157
88	0x3e92cc0d	0.28671303
89	0x3e1e8271	0.15479447
90	0x3ddd13fc	0.10794827
91	0xbba06201	-0.0048944955
92	0xbef84fd9	-0.4849842
93	0x3e9268a7	0.28595468
94	0xbd0de579	-0.03464267
95	0x3d87cffa	0.06631465
96	0xbdf3cd6e	-0.11904417
97	0x3e4ce701	0.20009996
98	0xbd585e1f	-0.052824136
99	0xbc23cd4b	-0.009997676
100	0x3ecffd2e	0.40622848
101	0x3e28cdea	0.164848
102	0x3da74dfc	0.08169171
103	0x3e691c08	0.227646
104	0x3d7ead8d	0.06217723
105	0x3da77ac8	0.081777155
106	0xbe1a2bdb	-0.15055792
107	0x3db7ca52	0.089741364
108	0x3e5bc2f3	0.21461086
109	0x3e40b72a	0.18819872
110	0x3d58e9a3	0.05295719
111	0x3d1b861d	0.037969697
112	0x3e2e6856	0.17031989
113	0xbd85c19a	-0.06531067
114	0xbd28f8c7	-0.041252878
115	0x3d04d14f	0.032426175
116	0xbddf16a4	-0.1089299
117	0xbb2febe9	-0.0026843494
118	0xbcbd847f	-0.023134468
119	0x3ddad1cd	0.106845476
120	0x3e399272	0.1812227
121	0x3c2d1c61	0.010565848
122	0x3e90ac5e	0.28256506
123	0xbcf2af03	-0.029624468
124	0xbc44812d	-0.0119936885
125	0x3e84f2f7	0.25966617
126	0xbdf780d9	-0.120851226
127	0x3e8f9c0a	0.28048736
128	0x3daf3e81	0.085568435
129	0x3c47a6ea	0.0121857915
130	0x3dc395d5	0.095500626
131	0x3d95affb	0.07308956
132	0xbda2a381	-0.07941342
133	0x3e8adc03	0.2712098
134	0xbd536110	-0.051606238
135	0x3e0efbc7	0.13963233
136	0x3e9c59b8	0.305372
137	0x3e87047c	0.2637061
138	0x3e841ff7	0.25805637
139	0x3ea982fa	0.3310774
140	0x3e2a2bd5	0.16618283
141	0x3d3b6460	0.045750022
142	0x3e96410a	0.29346496
143	0x3e210004	0.15722662
144	0x3e0e5dca	0.13902965
145	0x3e6a6f97	0.2289413
146	0x3b48fb96	0.0030667535
147	0x3e54860c	0.2075426
148	0x3da5d9b9	0.08098168
149	0xbcede401	-0.029039385
150	0x3e68ee36	0.2274712
151	0x3e7ee04b	0.24890248
152	0x3e867937	0.26264355
153	0x3c8883a3	0.016664332
154	0x3c8cf14e	0.017204907
155	0x3e80e8e2	0.25177675
156	0xbde3559e	-0.111003146
157	0x3ed1eb2b	0.4099973
158	0xbb08201a	-0.0020771087
159	0x3e2cc886	0.16873369
160	0xbe7936ab	-0.2433726
161	0x3ee4aa7c	0.4466132
162	0x3d070832	0.0329668
163	0x3d02247b	0.03177307
164	0x3de841f4	0.113407046
165	0xbeb5b794	-0.35491621
166	0x3ea2f3fb	0.31826767
167	0x3ea97c3d	0.331026
168	0xbe30c7e2	-0.17263749
169	0x3e837aec	0.2567972
170	0x3ea848e4	0.3286811
171	0xbe15c0fc	-0.14624399
172	0x3e888131	0.26661065
173	0xbf0bd615	-0.5462354
174	0x3e9ab894	0.30218947
175	0x3e3d79b2	0.18503454
176	0x3e49c282	0.19703105
177	0xbc3404d2	-0.010987477
178	0x3ee435d4	0.44572318
179	0x3e6a56a6	0.22884616
180	0x3eb42484	0.3518411
181	0x3ca7eeb9	0.020499574
182	0xbc6571f8	-0.014004223
183	0x3dcba54b	0.099436365
184	0x3e5afa61	0.21384574
185	0x3d604f26	0.05476298
186	0x3e750fe3	0.23931842
187	0x3c7d03f1	0.015442834
188	0x3e6d4f96	0.23174891
189	0x3e843a69	0.25825813
190	0xbc94e789	-0.01817681
191	0x3eacf809	0.33782986
192	0x3e016369	0.12635578
193	0x3db5df7f	0.08880519
194	0x3df76300	0.120794296
195	0x3e74943d	0.23884673
196	0x3e14b6bc	0.14522833
197	0x3eb0ca53	0.3452936
198	0xbd67463e	-0.056463473
199	0x3e91b997	0.28461906
200	0x3e8e6f13	0.27819118
201	0xbde80a42	-0.113300815
202	0x3d760e8b	0.060072463
203	0x3e8e9012	0.27844292
204	0xbe26a8b7	-0.16275297
205	0x3e9a6108	0.30152154
206	0x3db4676c	0.08808789
207	0x3d15ab5d	0.036540378
208	0x3e54672e	0.20742485
209	0xbdfa9c38	-0.122368276
210	0x3e85d66f	0.26140162
211	0x3d871615	0.06596009
212	0x3e0074fd	0.12544627
213	0x3ebd949e	0.37027448
214	0xbdda8b58	-0.10671109
215	0x3cfcf982	0.030880693
216	0x3e069340	0.13142109
217	0x3e25a24b	0.16175191
218	0x3ebd4154	0.36963904
219	0x3ad34f6d	0.0016121693
220	0x3e055289	0.13019766
221	0xbe2caa5e	-0.16861865
222	0x3ec8968a	0.39177352
223	0x3e5407e2	0.20706132
224	0x3cc1a2ea	0.023637254
225	0xbddddd47	-0.10833221
226	0x3e1933f4	0.14961225
227	0xbe11190c	-0.14169711
228	0x3eb970ae	0.3621878
229	0xbc42002c	-0.011840861
230	0xbccc44b1	-0.024935098
231	0x3db87b7d	0.090079285
232	0x3daa252d	0.08307872
233	0xbe855eae	-0.26048797
234	0x3deedd59	0.116633125
235	0x3e9d4d95	0.30723253
236	0x3e8d75a4	0.27628815
237	0x3dd0a83f	0.101883404
238	0x3c5a35e0	0.013318509
239	0x3e06a016	0.13147005
240	0x3e9814d8	0.29703403
241	0xbdbd19cb	-0.09233435
242	0x3eaaba60	0.33345318
243	0x3d7d7208	0.061876327
244	0x3eb01b73	0.34395942
245	0x3dcc28e3	0.09968736
246	0xbeb5ef73	-0.35534248
247	0xbe28153a	-0.16414347
248	0xbc8651ed	-0.016396487
249	0x3e8fcdb0	0.28086615
250	0x3e04c338	0.12965095
251	0xbd21f204	-0.039537445
252	0xbd20fcab	-0.039303463
253	0xbdcfff55	-0.101561226
254	0x3d7b302e	0.061325245
255	0x3e47a79d	0.19497533

l2.bias f4 [20]
0	0xbe024d20	-0.12724733
1	0x3e238858	0.1596998
2	0x3d9e2b07	0.077230506
3	0x3ec90803	0.39263925
4	0xbe70a092	-0.23498753
5	0x3d9a789a	0.07542534
6	0x3d9c21e6	0.07623653
7	0xbc2333bd	-0.009961066
8	0x3e5c2958	0.21500146
9	0x3cf4bdcb	0.029875657
10	0x3d2c32b5	0.042040545
11	0x3e6446df	0.2229266
12	0xbeb20005	-0.3476564
13	0x3ce419c1	0.027844312
14	0x3ea0c91a	0.31403428
15	0x3ef4bab5	0.47798696
16	0x3e7405f3	0.23830394
17	0x3d900501	0.070322044
18	0x3ce66c70	0.028127879
19	0x3e01088e	0.1260092

l3.weight f4 [20, 20]
0	0x3de2b111	0.11068929
1	0x3da52377	0.08063405
2	0xbdd8d58c	-0.10587606
3	0x3e3a4571	0.18190552
4	0x3e128559	0.1430868
5	0x3e9f66ee	0.31133217
6	0x3e8db69d	0.27678385
7	0x3e260eca	0.16216579
8	0xbed003b8	-0.40627837
9	0x3e8f23d7	0.2795703
10	0xbda2dbeb	-0.07952102
11	0x3c8fe6db	0.017566135
12	0x3e624ea7	0.22100316
13	0x3dcc319f	0.09970402
14	0xbd1ab01a	-0.0377656
15	0x3e8e932e	0.27846664
16	0x3ddb09ed	0.106952526
17	0x3e9f4e4d	0.31114426
18	0xbd69d954	-0.057092026
19	0xbd324320	-0.043521047
20	0x3e9f6e4f	0.31138846
21	0x3e835e8c	0.2565807
22	0xbd83e663	-0.06440427
23	0x3ee9b884	0.45648587
24	0x3e5a7f57	0.21337639
25	0xbdf95616	-0.12174623
26	0xbe533f41	-0.20629598
27	0xbddf95cc	-0.10917243
28	0xbf2994f5	-0.66242915
29	0x3e8384ad	0.2568716
30	0xbe85551f	-0.26041505
31	0x3e685a86	0.22690782
32	0x3ea60d55	0.32432047
33	0x3d8e0e28	0.06936294
34	0x3e5e5b6a	0.21714559
35	0x3e5442b3	0.20728569
36	0x3e53302b	0.20623843
37	0xbda1e5cb	-0.07905158
38	0x3dc13b27	0.094351105
39	0xbc425a3f	-0.011862337
40	0x3e2b616b	0.16736381
41	0xbe16475a	-0.14675656
42	0x3e1946fa	0.14968482
43	0xbcdceab1	-0.026967378
44	0xbe6c08b9	-0.23050202
45	0x3de8accd	0.11361084
46	0xbe720bc4	-0.236373
47	0x3be8c5eb	0.007103672
48	0xbc61971a	-0.013768936
49	0x3dc760e3	0.097352766
50	0xbce5e351	-0.028062494
51	0xbc124de3	-0.008929702
52	0x3e081b51	0.1329167
53	0xbd29169f	-0.04128134
54	0xbe431603	-0.19051366
55	0x3d5d839b	0.054080587
56	0x3bf1a69b	0.0073745972
57	0xbd25c221	-0.04046834
58	0x3cde1d02	0.027113441
59	0x3de0ff4a	0.109861925
60	0x3e13e1d9	0.14441623
61	0xbd9884ec	-0.07447228
62	0x3e4445fd	0.19167323
63	0xbdbd9eca	-0.09258802
64	0xbdf055c3	-0.11735108
65	0x3dce560c	0.10075006
66	0xbcd7c619	-0.026339578
67	0xbe1ec44e	-0.15504572
68	0x3c68f066	0.014217472
69	0xbde40a56	-0.11134784
70	0xbda585d2	-0.08082165
71	0x3cf37efe	0.02972364
72	0xbd464b00	-0.04841137
73	0xbe26e51f	-0.1629834
74	0xbca21b25	-0.019788334
75	0xbe4bb9ac	-0.19895047
76	0xbdd04c48	-0.101707995
77	0x3e3094f8	0.17244327
78	0xbbd60bbf	-0.006532162
79	0xbdb55d4b	-0.08855685
80	0xbe42606c	-0.18982095
81	0xbe241fcd	-0.16027756
82	0xbe4204e9	-0.18947186
83	0x3dce603f	0.10076951
84	0x3d3f57c6	0.046714567
85	0x3d51f73d	0.051261175
86	0x3df71f00	0.1206646
87	0x3d9d4496	0.07679097
88	0xbdbd1e4b	-0.092342936
89	0xbdc317c2	-0.09526016
90	0xbe443758	-0.19161737
91	0xbe15af2b	-0.14617603
92	0x3d520215	0.051271517
93	0xbe3a2eb0	-0.18181872
94	0xbe41662e	-0.18886635
95	0x3e2d6cef	0.16936086
96	0x3dd91271	0.105992205
97	0x3e1128d2	0.14175728
98	0xbdf40107	-0.119142585
99	0x3dd8577e	0.10563563
100	0x3dc6767f	0.0969057
101	0x3ea066ac	0.31328332
102	0xbe1e6412	-0.15467861
103	0x3db1749c	0.086648196
104	0x3e5a02db	0.21290152
105	0x3e89edc7	0.26939222
106	0x3ea9f508	0.33194757
107	0x3ea5fe58	0.3242061
108	0xbefd3189	-0.49451855
109	0x3e5db921	0.21652652
110	0x3e08d3c8	0.13362038
111	0xbc7417ba	-0.014898235
112	0x3ea40ef1	0.3204265
113	0x3e5d2416	0.21595797
114	0x3e032516	0.12807116
115	0x3e665709	0.22494139
116	0x3e7edeae	0.24889633
117	0x3ea01e27	0.31273004
118	0xbb85e7e0	-0.0040864795
119	0x3eae4d5d	0.34043398
120	0x3eafeae5	0.34358898
121	0x3e8cac2c	0.27475107
122	0x3e516bea	0.20451322
123	0x3d23a728	0.039954334
124	0x3e5bf829	0.21481384
125	0xbce3bb43	-0.027799254
126	0x3dd7d663	0.10538938
127	0x3eb16710	0.34648943
128	0xbf03c73b	-0.51475877
129	0x3e02bb8a	0.12766853
130	0x3d11af47	0.035567548
131	0x3e5c04ca	0.21486202
132	0x3ee9998d	0.45624962
133	0x3dd8e1ce	0.10589944
134	0x3dac91c8	0.08426243
135	0x3ef897d5	0.4855334
136	0x3eb06ca2	0.3445788
137	0x3e0205bb	0.12697499
138	0xbd2ddd78	-0.042447537
139	0x3dc8dd19	0.09807796
140	0x3de88b35	0.11354677
141	0x3dafc867	0.085831456
142	0x3e13c07d	0.14428897
143	0x3e372b3c	0.17887586
144	0xbd7a5b25	-0.06112208
145	0xbd4fcb0d	-0.050730754
146	0x3e109844	0.14120585
147	0xbd58728c	-0.052843615
148	0xbd19ea11	-0.03757674
149	0x3bcd4d8c	0.006265348
150	0x3de710c5	0.112824954
151	0x3d869584	0.065714866
152	0x3bb7338a	0.0055908607
153	0x3a998ab7	0.0011714314
154	0xbdcaf9b9	-0.09910912
155	0xbe275d7c	-0.16344255
156	0xbdc46188	-0.09588915
157	0xbd802160	-0.06256366
158	0xbe1d9272	-0.15387896
159	0xbe62f76d	-0.22164698
160	0x3e603f46	0.21899137
161	0xbd86094f	-0.06544744
162	0x3d8b47c3	0.06800797
163	0x3e2a0ce1	0.16606475
164	0x3ee6bf11	0.45067647
165	0x3e120be4	0.14262348
166	0x3dbbc2f6	0.09168045
167	0x3dda138f	0.10648262
168	0xbe694f4c	-0.22784156
169	0x3e8e3ef9	0.2778242
170	0x3e4af168	0.19818652
171	0x3eb66172	0.3562122
172	0x3f0fb6c4	0.56138253
173	0x3dee6404	0.1164017
174	0x3eae65e3	0.34062108
175	0x3ebd8e43	0.370226
176	0x3e8cd970	0.27509642
177	0xbd4890e6	-0.04896631
178	0x3e470f1a	0.19439355
179	0x3e99bc1b	0.30026326
180	0xbe118272	-0.14209917
181	0x3b788c14	0.003792529
182	0x3f072c2b	0.5280177
183	0x3c7adb7b	0.015311117
184	0xbe7c6e3a	-0.24651423
185	0x3d4df6f4	0.05028434
186	0x3eaffc6e	0.34372276
187	0xbdd033e8	-0.1016615
188	0x3e8e78b4	0.27826464
189	0x3e06fa50	0.13181424
190	0x3c75edd9	0.015010321
191	0x3e9de8f8	0.30841804
192	0xbefb1e6a	-0.49046642
193	0x3e7dcc09	0.24784864
194	0x3e02e015	0.12780793
195	0xbf3f8c8e	-0.74823844
196	0x3d4e5576	0.05037447
197	0x3e65be4c	0.22435874
198	0xbe9e0848	-0.30865693
199	0xbcd7721f	-0.026299534
200	0x3db58f14	0.088651806
201	0xbb9dcbf6	-0.004815574
202	0xbde3322e	-0.110935554
203	0xbe11af6d	-0.14227076
204	0x3d9dc307	0.07703214
205	0x3e26e35b	0.16297667
206	0x3ce8dab9	0.028424608
207	0x3e84109a	0.25793916
208	0xbeb28bea	-0.3487237
209	0x3e860464	0.26175225
210	0x3e87540e	0.26431316
211	0xbc2f01ff	-0.010681628
212	0x3e327c8e	0.17430326
213	0xbd98adbf	-0.074550144
214	0xbd2ad25b	-0.041704517
215	0x3e9ffbbd	0.3124675
216	0x3e22e98c	0.15909404
217	0x3d4035d6	0.046926342
218	0x3e98e269	0.29860237
219	0xbdb002c8	-0.085942805
220	0xbe035078	-0.12823665
221	0xbdab442e	-0.083626136
222	0x3d756c35	0.059917647
223	0x3e004a27	0.12528287
224	0xbd6268f3	-0.05527587
225	0xbe222726	-0.15835246
226	0x3e122ec1	0.14275648
227	0x3e0b5a44	0.13608652
228	0xbe5c37ad	-0.21505614
229	0xbdfc258b	-0.12311848
230	0xbd3c05d2	-0.04590399
231	0xbd2a7cab	-0.0416228
232	0xbd0c294e	-0.03421908
233	0x3d20a58b	0.039220374
234	0xbd0e18d8	-0.03469166
235	0xbdb3f378	-0.08786672
236	0xbdb57394	-0.088599354
237	0xbe150034	-0.14550859
238	0xbd34328b	-0.043993514
239	0xbcf6e206	-0.030137073
240	0x3ddfba24	0.109241754
241	0x3e3953c5	0.18098362
242	0x3e0461ef	0.12927984
243	0x3bbc45fa	0.0057456465
244	0x3eea988d	0.45819512
245	0xbda490c9	-0.08035428
246	0xbc156d66	-0.009120321
247	0xbe2cd9b0	-0.16879916
248	0xbee5fb82	-0.44918448
249	0x3e133ef0	0.14379478
250	0xbe7c8036	-0.24658284
251	0x3ea9677f	0.33086774
252	0x3f1b9215	0.6076978
253	0xbd5b8acc	-0.053599164
254	0x3e4e8c31	0.20170666
255	0x3e7b4a66	0.245401

l3.bias f4 [20]
0	0x3e46137e	0.19343373
1	0x3f00612c	0.5014827
2	0x3c0197ac	0.007909697
3	0x3cb22d69	0.021750169
4	0xbe4da00f	-0.20080589
5	0x3e6fa654	0.23403293
6	0x3e6924b4	0.22767907
7	0x3d0a8d0e	0.033825926
8	0x3ea14093	0.3149458
9	0x3e212a2d	0.15738745
10	0x3d1fb41d	0.03899013
11	0xbcbb33be	-0.022851821
12	0x3e830959	0.2559307
13	0xbe442143	-0.19153313
14	0xbd21fa60	-0.039545417
15	0xbde306b3	-0.11085262
16	0xbc8c3421	-0.0171147
17	0x3e0c9d1e	0.1373181
18	0xbb445926	-0.0029960363
19	0xbd54fed3	-0.05200083

l4.weight f4 [20, 20]
0	0x3e99463c	0.29936397
1	0x3eb0cf86	0.34533328
2	0xbdbe8dea	-0.09304412
3	0xbd4977cb	-0.04918651
4	0xbc9fe94d	-0.019520426
5	0x3e57960f	0.21053337
6	0x3de297d8	0.11064118
7	0x3ceb4c20	0.028722823
8	0x3e2958d5	0.16537793
9	0xbeb2ada8	-0.34898114
10	0x3e93f774	0.2889973
11	0x3dabe356	0.0839297
12	0x3e65da58	0.22446573
13	0x3d9f089b	0.07765313
14	0x3e9dff38	0.3085878
15	0x3d257935	0.040398795
16	0x3e88681e	0.26641935
17	0x3e7cd8d0	0.24692082
18	0x3dca4c47	0.0987783
19	0xbe0c6fc0	-0.13714504
20	0xbde8f2ba	-0.113744214
21	0xbe1fafec	-0.15594453
22	0x3e04d957	0.12973534
23	0x3d12ddf3	0.0358562
24	0x3cbdffc8	0.023193255
25	0xbdc4d6d3	-0.09611287
26	0x3e243056	0.16034064
27	0x3e2f5069	0.17120518
28	0x3d36e84b	0.044655126
29	0x3ecc751b	0.39933094
30	0xbdcb9613	-0.09940734
31	0x3da4e370	0.08051193
32	0xbddc3599	-0.107524104
33	0x3ea95e62	0.3307982
34	0x3e3fb56e	0.18721554
35	0xbc34fe38	-0.011046939
36	0x3ca20442	0.01977742
37	0xbe47ce47	-0.19512282
38	0xbe384df3	-0.17998485
39	0x3d717af1	0.058955137
40	0x3e82e56f	0.2556567
41	0x3e633d1b	0.22191279
42	0x3c9dd1bb	0.019265046
43	0x3df64cd4	0.120263726
44	0x3e375a5d	0.17905565
45	0x3df8e3cd	0.121528246
46	0x3e5ad0b6	0.2136868
47	0xbdb3906e	-0.08767782
48	0x3d0914c6	0.033467077
49	0xbe76a8a1	-0.24087764
50	0x3e4dc643	0.20095162
51	0x3e019eb7	0.12658201
52	0xbc91aaaa	-0.017781574
53	0x3d881c4c	0.06646022
54	0x3dde6932	0.10859908
55	0x3e48dc11	0.19615199
56	0x3e9a01d0	0.30079508
57	0x3d346224	0.044038907
58	0x3d1848e8	0.037178904
59	0x3dd6ea6c	0.10493931
60	0xbe8cdc7f	-0.27511975
61	0xbedb3934	-0.4281708
62	0xbca2aa94	-0.019856729
63	0x3e0274a8	0.12739813
64	0x3dc03038	0.09384197
65	0xbcc4a537	-0.024004562
66	0x3c90f21a	0.017693568
67	0xbd9e1cff	-0.07720374
68	0x3e50709c	0.20355457
69	0xbeee6b4a	-0.4656623
70	0x3e21096d	0.15726252
71	0x3dec89cd	0.11549721
72	0xbd93adcf	-0.07210886
73	0x3f2ed202	0.68289196
74	0xbdce626d	-0.10077367
75	0x3df94b63	0.12172582
76	0xbe9541f4	-0.2915188
77	0x3e5539a4	0.2082277
78	0x3dbee8ef	0.09321772
79	0xbdb10b7e	-0.0864477
80	0x3dfad57c	0.1224775
81	0xbdb5dc7d	-0.088799454
82	0xbde231ba	-0.11044641
83	0x3e18a176	0.14905342
84	0x3c8adab3	0.016949987
85	0xbcbb3fe8	-0.022857621
86	0xbdafaead	-0.08578239
87	0x3e3d2207	0.18470012
88	0x3e988248	0.29786897
89	0xbed2278e	-0.41045803
90	0x3e946dac	0.28989923
91	0x3d314f46	0.04328849
92	0x3e82c199	0.25538328
93	0x3e73ce48	0.23809159
94	0x3e676f30	0.22601008
95	0x3e21f88b	0.15817468
96	0x3e77ecc3	0.24211411
97	0x3c9d1ff2	0.019180272
98	0x3e42221a	0.18958321
99	0x3cf37b3a	0.029721845
100	0xbf3055b6	-0.68880785
101	0xbf1a3909	-0.6024328
102	0xbd2eae97	-0.04264697
103	0x3e190f2c	0.14947194
104	0x3e1a69ce	0.15079424
105	0xbd0c39fd	-0.03423499
106	0xbee4d528	-0.44693875
107	0xbd3b299e	-0.045693986
108	0x3e6a1cb3	0.2286251
109	0xbe3dc69a	-0.18532792
110	0x3e35b4d8	0.17744768
111	0x3dffb850	0.12486327
112	0xbe03806e	-0.12841961
113	0xbd247a29	-0.040155564
114	0x3e7e68d9	0.24844684
115	0x3d2809cd	0.04102497
116	0x3e19f2c2	0.15034011
117	0x3f0fbfff	0.5615234
118	0x3dae2ead	0.085049964
119	0x3ddc9775	0.10771076
120	0xbdd1028b	-0.10205563
121	0x3e8fc9a7	0.28083536
122	0xbd97be86	-0.07409386
123	0xbd86d782	-0.065840736
124	0x3e488af5	0.19584258
125	0xbeaaf047	-0.33386442
126	0xbe7ed760	-0.24886847
127	0xbe478876	-0.1948565
128	0x3e0608d4	0.13089305
129	0x3edeb728	0.43499112
130	0xbec3344c	-0.38125837
131	0x3dbf0617	0.093273334
132	0x3ec799f3	0.3898464
133	0xbd2371fa	-0.03990362
134	0xbdb3c743	-0.087782405
135	0x3e1360ba	0.14392367
136	0x3e05c365	0.13062818
137	0x3dc50e9f	0.096219294
138	0x3c82a90c	0.015949748
139	0x3dc16991	0.09443963
140	0x3d672a9e	0.056437127
141	0x3e81bb26	0.25338095
142	0xbd17380f	-0.036918696
143	0x3e258431	0.16163708
144	0x3d832fb0	0.0640558
145	0x3dea4ee7	0.11440831
146	0xbce2c9e0	-0.027684152
147	0xbc4a9cf0	-0.012366518
148	0x3d7b569c	0.061361894
149	0xbec3f18b	-0.3827022
150	0x3e884c3f	0.2662067
151	0xbe06e2b5	-0.1317242
152	0x3e7808be	0.24222085
153	0x3cb88036	0.022522073
154	0x3bbe1f92	0.0058021033
155	0x3daa31d7	0.083102874
156	0x3e6944b1	0.2278011
157	0xbd3d41d7	-0.046205368
158	0xbe10138a	-0.14069954
159	0xbdacc6e2	-0.084363714
160	0x3e87cdcf	0.26524207
161	0x3d8f0795	0.06983868
162	0xbe1e7083	-0.15472607
163	0xbd8324f3	-0.06403532
164	0x3e01bda2	0.12669995
165	0x3c1af113	0.009456891
166	0x3e0363f5	0.128311
167	0xbe2ca12b	-0.16858356
168	0x3e549d04	0.20763022
169	0xbedb12ff	-0.4278793
170	0xbd35dac9	-0.044398103
171	0x3d84b7b9	0.06480355
172	0x3dcc224f	0.09967481
173	0x3e5f8bd3	0.21830682
174	0x3e60d368	0.21955645
175	0xbe642f10	-0.22283578
176	0x3e70fe4d	0.23534508
177	0x3e71d5bd	0.23616691
178	0xbe1a6d81	-0.15080835
179	0xbd034dbe	-0.032056563
180	0x3e76e336	0.24110112
181	0x3e45b633	0.19307785
182	0xbe0f229c	-0.13978046
183	0x3e3818a5	0.17978151
184	0x3db9b824	0.09068325
185	0x3e99bcde	0.30026907
186	0x3e43940c	0.19099444
187	0xbd8bedc7	-0.06832462
188	0x3eb6d558	0.35709643
189	0xbea6283a	-0.32452565
190	0xbd9ba786	-0.07600312
191	0xbd56339d	-0.052295316
192	0x3e608456	0.21925482
193	0x3d4bb3f5	0.049732167
194	0x3eb45a53	0.35225162
195	0xbdf1edf2	-0.118129626
196	0x3e8d9b6d	0.27657643
197	0x3b9181ce	0.0044405228
198	0xbdfca875	-0.12336818
199	0x3e7a59ad	0.24448271
200	0xbdcd4b5c	-0.10024139
201	0xbddf9163	-0.10916402
202	0x3d06da18	0.032922834
203	0xbd841e8f	-0.06451141
204	0xbdbfc7c1	-0.09364272
205	0x3c82e5c4	0.015978701
206	0x3e3066c9	0.1722671
207	0xbd4d5e00	-0.050138474
208	0xbe21088f	-0.15725921
209	0xbd05b4d9	-0.032643173
210	0x3e34c284	0.17652327
211	0x3e3b391b	0.18283503
212	0x3da28f89	0.079375334
213	0x3c06162c	0.008183997
214	0x3cf8381e	0.030300196
215	0x3e3e498d	0.18582745
216	0xbe0ce2f4	-0.13758451
217	0xbe5e18c4	-0.21689135
218	0xbd619738	-0.055075854
219	0x3e0bf49e	0.13667533
220	0x3d4ff95e	0.050774924
221	0x3e975841	0.2955952
222	0xbc35959d	-0.011083034
223	0x3e353649	0.1769649
224	0x3dbbf094	0.09176746
225	0x3e6b1067	0.22955476
226	0x3e43e523	0.19130377
227	0xba659a3b	-0.0008758639
228	0x3d94fdea	0.07274993
229	0xbe902229	-0.28151062
230	0x3e6b8429	0.22999634
231	0xbe25475a	-0.161405
232	0x3dcc9631	0.09989584
233	0x3e2c5bf5	0.16831954
234	0x3e689663	0.22713618
235	0x3ce02916	0.027363341
236	0xbccdb1c8	-0.025109187
237	0x3e60fb22	0.219708
238	0x3d6ef3b4	0.058337882
239	0x3df56478	0.119820535
240	0x3e82fa2b	0.25581488
241	0xbdd1c201	-0.102420814
242	0xbdb9957b	-0.09061714
243	0xbdacfcf8	-0.084466875
244	0xbcedb6fb	-0.029017916
245	0x3e8234f4	0.25431025
246	0x3cee7138	0.029106721
247	0xbd5be24a	-0.053682603
248	0x3e199763	0.14999156
249	0xbef6a629	-0.48173645
250	0xbc88f9a0	-0.016720593
251	0x3de0fd28	0.10985786
252	0x3df5bed4	0.11999288
253	0x3e752fb8	0.23943985
254	0xbd2185db	-0.039434295
255	0x3e0ba3d1	0.1363671

l4.bias f4 [20]
0	0x3e6f2458	0.23353708
1	0xbe314dab	-0.17314784
2	0x3d415ea3	0.047209393
3	0x3e51db73	0.2049387
4	0xbdf6f305	-0.12058071
5	0xbe129bd6	-0.14317259
6	0x3eba3a5c	0.3637265
7	0x3eab3c5a	0.33444482
8	0x3e0ce0eb	0.13757674
9	0x3e943085	0.28943267
10	0xbc1f74cd	-0.009732437
11	0x3e840f8a	0.25793105
12	0xbc5310e1	-0.012882442
13	0xbe10ff7a	-0.14159957
14	0x3e2c1e85	0.16808517
15	0xbc86c72e	-0.016452398
16	0x3db6859f	0.08912205
17	0xbd061840	-0.03273797
18	0xbe69af4e	-0.2282078
19	0xbe34543e	-0.17610261

l5.weight f4 [20, 20]
0	0x3e06e8b9	0.13174714
1	0x3ee2834c	0.44240797
2	0x3e4b0f41	0.19830038
3	0xbed39aa0	-0.41328907
4	0xbd0335c3	-0.032033693
5	0x3eec8fc9	0.4620345
6	0x3f7251ff	0.94656366
7	0xbe9022f2	-0.2815166
8	0x3e0c4fba	0.13702288
9	0x3ba99bd6	0.005176048
10	0xbd37be76	-0.044859372
11	0xbe24a3ed	-0.16078158
12	0xbe3b49cc	-0.1828987
13	0x3df1aa79	0.11800093
14	0x3cd6596b	0.026165685
15	0xbd854169	-0.065066166
16	0xbe32a68a	-0.17446342
17	0xbcf4d001	-0.02988434
18	0x3e24c377	0.16090189
19	0x3e0fa2e8	0.14026988
20	0x3dbafdd0	0.09130442
21	0x3eda8618	0.4268043
22	0xbc8200d9	-0.015869545
23	0x3ea3ad04	0.31967938
24	0x3de92013	0.11383071
25	0x3efec6f8	0.49761176
26	0x3f703957	0.93837494
27	0xbdf7d9a3	-0.12102058
28	0x3e13a356	0.14417776
29	0x3d750d8c	0.059827372
30	0x3c3f9747	0.011693782
31	0x3b6f457d	0.0036509924
32	0x3d4326db	0.047644477
33	0xbda3842f	-0.079841964
34	0xbdbd4eac	-0.09243521
35	0xbe163a9a	-0.14670792
36	0x3e1b61a3	0.15173964
37	0xbcdff77d	-0.027339691
38	0x3e05c3ca	0.13062969
39	0xbd7ea0a3	-0.062164914
40	0xbcb381fb	-0.021912565
41	0x3ed82e4c	0.42222822
42	0x3e236d11	0.15959574
43	0x3f1509ad	0.5821789
44	0x3dbe096b	0.0927914
45	0x3efaa81b	0.4895638
46	0x3f6b7687	0.91977733
47	0xbdc67c9c	-0.09691736
48	0x3d5e1253	0.054216694
49	0xbe114ce4	-0.14189488
50	0xbe2c01e0	-0.1679759
51	0x3cdc497d	0.02689051
52	0x3e1d375f	0.15353154
53	0x3e58ecd7	0.21184097
54	0xbe0d1dae	-0.13780853
55	0x3e163b3d	0.14671035
56	0xbbd82c84	-0.0065971036
57	0xbdf832c0	-0.12119055
58	0x3da427fc	0.08015439
59	0x3e2acd7c	0.16679949
60	0x3ebbe88d	0.3670086
61	0xbe7a6c5f	-0.24455403
62	0x3e805f1c	0.25072563
63	0x3f345367	0.7043976
64	0x3e8a4b2f	0.27010486
65	0xbfe3b696	-1.7790096
66	0xbf19c782	-0.6007005
67	0x3ccad5be	0.024760123
68	0x3d439ff7	0.047759976
69	0x3dc7e988	0.097613394
70	0x3c75aa83	0.014994266
71	0xbc36b627	-0.011151827
72	0xbcd33a21	-0.025784554
73	0x3d3bb03b	0.045822363
74	0x3cd77b56	0.026303928
75	0xbc8f6616	-0.017504733
76	0xbe19773a	-0.14986888
77	0x3dd96065	0.10614089
78	0x3def677f	0.11689662
79	0xbbb2fc02	-0.0054621706
80	0x3dbec92a	0.09315713
81	0xbe58ef7f	-0.2118511
82	0xbe314532	-0.17311552
83	0x3e3290df	0.17438076
84	0x3e724ae2	0.23661378
85	0x3fa45496	1.2838314
86	0xbe8804ef	-0.26566264
87	0xbe32d0ba	-0.17462435
88	0xbd1ad9c2	-0.037805326
89	0xbe3a0fac	-0.18170041
90	0xbd3c5578	-0.045979947
91	0x3cb59334	0.022164918
92	0xb9eac4f0	-0.00044778688
93	0x3dd53441	0.10410357
94	0x3e41f4a4	0.18940979
95	0x3e416d4a	0.18889347
96	0xbe080070	-0.13281417
97	0xbdfb794b	-0.12278994
98	0x3d08a58a	0.033360995
99	0xbd6d3b45	-0.057917852
100	0xbb903565	-0.0044008964
101	0xbd530aef	-0.0515241
102	0x3c843cad	0.016142214
103	0xbe343802	-0.1759949
104	0xbe0c3189	-0.13690771
105	0x3cfd5e94	0.030928887
106	0xbde63127	-0.11239844
107	0xbe219aef	-0.15781759
108	0xbd9f5e3e	-0.07781647
109	0xbde934b1	-0.11387003
110	0xbdc89bcd	-0.09795342
111	0xbddcaf0b	-0.10775574
112	0xbe08d752	-0.13363388
113	0x3ca94b2e	0.020665731
114	0x3df919e3	0.121631406
115	0x3d1c7152	0.03819401
116	0x3d98972e	0.0745071
117	0xbcd6a0e9	-0.026199775
118	0x3dd59a25	0.10429791
119	0xbe3deab4	-0.18546563
120	0x3e220790	0.15823197
121	0xbec8234f	-0.39089438
122	0x3b607bf4	0.003425357
123	0x3e9765d7	0.29569885
124	0x3de6f663	0.11277463
125	0xc00e3a8b	-2.2223232
126	0xbf27cb40	-0.6554451
127	0x3e2348a1	0.15945674
128	0x3e150211	0.1455157
129	0x3d48b7e9	0.049003515
130	0xbe4cef88	-0.20013249
131	0x3e95f6ed	0.29289952
132	0x3dce6b6c	0.10079083
133	0x3e07b66d	0.13253184
134	0x3e9224d3	0.2854372
135	0x3d3aa446	0.04556682
136	0xbd0efd44	-0.0349095
137	0x3d27e51a	0.040989973
138	0xbe38944f	-0.18025325
139	0x3e6e6236	0.23279652
140	0x3e624ca9	0.22099556
141	0xbed66e3f	-0.41880986
142	0x3e2e8b02	0.17045215
143	0x3f359587	0.70931286
144	0x3dff763c	0.12473723
145	0xbf235e9e	-0.6381625
146	0xbf0d4746	-0.5518688
147	0x3df713f8	0.120643556
148	0x3e9ae082	0.3024941
149	0x3e1a6396	0.15077052
150	0x3c91f0fc	0.017815106
151	0x3dcef8a0	0.10106015
152	0x3e85de30	0.26146078
153	0x3e5bef6c	0.21478051
154	0x3e87568f	0.26433226
155	0x3e24bdb1	0.16087987
156	0x3c0b21af	0.0084919175
157	0x3e9a4803	0.30133066
158	0xbe1aae0d	-0.15105458
159	0x3e73f766	0.23824844
160	0x3df960a3	0.12176635
161	0xbe4fa701	-0.2027855
162	0x3c90230a	0.017594833
163	0xbe05d74e	-0.13070413
164	0x3e937866	0.28802794
165	0xbf359025	-0.7092307
166	0xbee0d525	-0.43912616
167	0x3e99011a	0.29883653
168	0x3ea98db4	0.33115923
169	0x3bd76a04	0.0065739173
170	0x3da71249	0.081577845
171	0x3da8d175	0.08243076
172	0x3d7144f9	0.058903668
173	0x3c7d479c	0.015458968
174	0x3e38cb43	0.18046288
175	0x3eb232ff	0.34804532
176	0x3d47949f	0.04872572
177	0x3e98856e	0.297893
178	0xbe229d1e	-0.15880248
179	0x3d6b6552	0.057469673
180	0xbcec2c0c	-0.028829597
181	0xbe0a4add	-0.1350512
182	0x3dc6352d	0.09678111
183	0xbda58e00	-0.08083725
184	0x3da7eb57	0.081991844
185	0x3e1e5ad0	0.1546433
186	0x3e21678f	0.1576216
187	0xbd447f1a	-0.047972776
188	0xbe433879	-0.19064511
189	0xbcd791e9	-0.026314693
190	0xbdbfa434	-0.09357491
191	0x3dce4c6c	0.1007317
192	0x3e443c01	0.19163515
193	0x3ca918ab	0.020641645
194	0xbc93733f	-0.01799929
195	0xbe5255c1	-0.20540525
196	0xbcfce3ca	-0.030870337
197	0x3dbc8e58	0.092068374
198	0xbdd55a5d	-0.10417626
199	0xbd0ef085	-0.034897346
200	0x3e559a89	0.20859732
201	0xbede050d	-0.43363228
202	0x3e441601	0.19149019
203	0x3f1a1d33	0.60200804
204	0xbc5c26b4	-0.013436962
205	0xbf454fef	-0.77075094
206	0xbebb6b1b	-0.36605152
207	0x3dc75256	0.09732501
208	0x3e1fe020	0.1561284
209	0x3e201e8d	0.15636654
210	0xbc644753	-0.013933021
211	0x3e4aaf62	0.19793466
212	0x3dd6b9a2	0.104846254
213	0xbddb0ec3	-0.10696175
214	0xbe305fac	-0.17223996
215	0x3e1a7c4e	0.15086481
216	0x3ddc2860	0.107498884
217	0x3b851a42	0.004061968
218	0xbdb0cee3	-0.086332105
219	0x3e4dfd87	0.20116244
220	0x3e895352	0.2682138
221	0xbee00595	-0.4375426
222	0x3de6361d	0.1124079
223	0x3d6a9197	0.05726775
224	0x3cc6e5d3	0.02427951
225	0xbdd09a84	-0.101857215
226	0xbf3b1ad6	-0.73087823
227	0x3e495e47	0.1966487
228	0x3e88cc90	0.2671857
229	0x3eb4b55c	0.35294616
230	0xbe1b131a	-0.15144005
231	0x3de86f2f	0.113493316
232	0x3e8460e6	0.25855178
233	0xbe01812a	-0.12646928
234	0x3e3251ca	0.17414013
235	0x3e4be05b	0.19909804
236	0x3c28f816	0.010313055
237	0x3eadf9b4	0.3397957
238	0xbdd642de	-0.10461973
239	0x3e0e47b2	0.13894537
240	0x3e8de9d1	0.2771745
241	0xbec189c5	-0.37800422
242	0x3d5dd9dd	0.05416285
243	0x3ddd8871	0.1081704
244	0x3ea88940	0.32917213
245	0xbe456773	-0.19277744
246	0xbf56c139	-0.83888584
247	0xbd505c3c	-0.05086921
248	0x3e859afe	0.26094812
249	0x3e89443f	0.2680988
250	0xbdd8f42b	-0.10593446
251	0x3e8a752b	0.27042517
252	0x3d9696a3	0.073529504
253	0x3d8c5d36	0.06853716
254	0xbd10e059	-0.035370205
255	0x3ac2d4f8	0.0014864495

l5.bias f4 [20]
0	0xbeef4399	-0.4673126
1	0xbe3475a2	-0.17622998
2	0xbe0928b5	-0.13394435
3	0x3e9709e9	0.29499748
4	0x3db0ae88	0.08627039
5	0x3cc59c8e	0.024122503
6	0x3e1aa1ba	0.15100756
7	0x3e822505	0.2541887
8	0x3e48c39e	0.19605872
9	0xbdc8e3f2	-0.09809102
10	0xbe2c62b4	-0.16834527
11	0x3e1a90e9	0.15094341
12	0x3da7808d	0.08178816
13	0xbe3800df	-0.17969082
14	0xbe4037e0	-0.18771315
15	0xbdfb1c16	-0.12261216
16	0xbe4e8e38	-0.2017144
17	0x3e0fbf48	0.14037812
18	0xbe48594c	-0.19565314
19	0xbde4c239	-0.111698575

l6.weight f4 [20, 20]
0	0xbe7cd6b6	-0.2469128
1	0xbe8b4343	-0.27199754
2	0xbe1e5103	-0.15460591
3	0x3e59886d	0.21243449
4	0xbe6845a1	-0.22682811
5	0xbe4eeed6	-0.20208296
6	0x3e42362f	0.18965982
7	0xbca705f5	-0.020388583
8	0x3d8f7b57	0.07005947
9	0x3e21143a	0.15730372
10	0x3e5176b9	0.20455445
11	0x3c1000d0	0.008789256
12	0xbd12d929	-0.03585163
13	0xbae60dc6	-0.0017551712
14	0x3e791c4d	0.24327202
15	0xbee97cd3	-0.45603046
16	0x3e00b47c	0.1256885
17	0x3e33d5fa	0.17562094
18	0xbe35338b	-0.17695443
19	0xbec4df2e	-0.38451523
20	0xbe92a1f8	-0.28639197
21	0xbe7f60b6	-0.24939236
22	0xbf0240b4	-0.5087998
23	0x3e9c0ade	0.3047704
24	0xbf5fed67	-0.8747162
25	0xbe06fa44	-0.13181406
26	0x3d892b49	0.06697709
27	0x3e4858e6	0.19565162
28	0x3e89443f	0.2680988
29	0xbe3641d9	-0.17798556
30	0x3dab6e37	0.08370631
31	0x3ebbffc0	0.3671856
32	0x3dc30736	0.0952286
33	0xbdc3442a	-0.09534486
34	0x3d53b7e8	0.05168906
35	0xbed0dd9a	-0.4079407
36	0x3dbdbf5a	0.09265013
37	0x3e2d59e8	0.16928828
38	0x3de9e40e	0.11420451
39	0xbedb27f6	-0.42803925
40	0x3ebd8054	0.3701197
41	0x3e41c285	0.1892186
42	0x3ea92872	0.3303867
43	0x3e46d328	0.19416487
44	0x3f2ab187	0.66677135
45	0x3d62c46c	0.055363104
46	0x3d8f6d41	0.070032604
47	0x3a3b9bd8	0.00071567064
48	0xbe876729	-0.26445892
49	0x3e243033	0.16034012
50	0x3e90ae14	0.2825781
51	0xbe231eee	-0.15929767
52	0xbd5519c2	-0.052026518
53	0xbe35d0a5	-0.17755373
54	0xbf536c3a	-0.82587016
55	0x3ec004a8	0.37503552
56	0xbd8222f5	-0.06354324
57	0xbe19c4ca	-0.15016475
58	0xbd4f079a	-0.05054436
59	0x3e88a7c9	0.2669051
60	0xbeac8d18	-0.33701396
61	0xbf01e8a3	-0.507456
62	0xbf2638cc	-0.64930415
63	0x3e9bba77	0.304157
64	0xbf9eca85	-1.2405554
65	0x3d8d7540	0.06907129
66	0x3e637568	0.22212756
67	0x3d93fc8e	0.07225905
68	0x3e59be24	0.21263939
69	0x3d7f36f5	0.06230827
70	0x3e6b0949	0.22952761
71	0x3e9cfdd5	0.30662408
72	0x3da6d845	0.08146719
73	0xbd8f65ce	-0.070018396
74	0x3dd9a5a9	0.106273
75	0xbde7a7b7	-0.11311286
76	0xbe2df0be	-0.16986367
77	0x3e9652eb	0.29360136
78	0xbe1656b3	-0.1468151
79	0xbf41e327	-0.7573723
80	0x3c59cb3a	0.013293082
81	0x3ea84e2a	0.32872134
82	0x3ed9f4e4	0.4256965
83	0x3d11cdd9	0.035596702
84	0x3f79fb18	0.97648764
85	0x3c720dcd	0.014773798
86	0xbd216627	-0.03940406
87	0xbd3ccccc	-0.046093747
88	0xbe15bb8d	-0.14622326
89	0x3de90bfe	0.113792405
90	0x3d04fccc	0.03246765
91	0xbd0bec05	-0.034160633
92	0x3ba5f511	0.0050646146
93	0x3dd37903	0.103258155
94	0x3cebf3bc	0.028802745
95	0x3ec9b0fd	0.39392844
96	0x3e2ef727	0.17086469
97	0x3e1b93d8	0.15193117
98	0x3e0e8ce0	0.13920927
99	0x3f290ea0	0.6603794
100	0xbe4a1561	-0.19734718
101	0xbe84e285	-0.2595407
102	0xbdb01b24	-0.08598927
103	0xbe5231bb	-0.20526783
104	0x3dc7bbf3	0.09752645
105	0xbe32e7d9	-0.17471255
106	0xbda69b2d	-0.08135066
107	0x3d5f553e	0.054524653
108	0xbe557d52	-0.20848587
109	0x3e40aefb	0.1881675
110	0xbe118d0c	-0.14213961
111	0xbe0779cf	-0.1323006
112	0x3e089392	0.13337544
113	0xbdd96cc8	-0.106164515
114	0xbd2bd304	-0.041949287
115	0x3e1872b4	0.14887506
116	0x3e1c0051	0.15234496
117	0xbe03ef70	-0.12884307
118	0xbe44cd1a	-0.19218865
119	0xbc85e43c	-0.016344182
120	0xbe677448	-0.22602952
121	0xbf000fea	-0.5002428
122	0xbeebf1a6	-0.460828
123	0x3e9477ea	0.28997737
124	0xbf97f999	-1.1873046
125	0xbdc4ccdf	-0.096093886
126	0x3e5f79a3	0.21823744
127	0x3e60000b	0.21875016
128	0x3eaa5d5e	0.3327436
129	0xbdd3c7eb	-0.10340866
130	0x3d517e0c	0.0511456
131	0x3ebae5f0	0.36503553
132	0x3eb7bc54	0.3588587
133	0x3cfee2b2	0.031113956
134	0x3e8ff131	0.28113702
135	0xbeba39cb	-0.36372218
136	0xbdd8fc94	-0.105950505
137	0x3e8b675c	0.27227294
138	0x3df66338	0.12030643
139	0xbfaa65f7	-1.3312367
140	0xbe8a4bc1	-0.2701092
141	0xbeebafbd	-0.46032515
142	0xbf18e078	-0.5971751
143	0x3c0c8de9	0.008578756
144	0xbf4d7cc8	-0.80268526
145	0x3e396ffa	0.18109122
146	0xbba15313	-0.0049232333
147	0x3e108886	0.1411458
148	0x3e248f31	0.16070248
149	0xbd5704df	-0.05249488
150	0x3d7b496a	0.06134931
151	0x3e29d48f	0.16584991
152	0x3e2fdc48	0.17173874
153	0xbe13b356	-0.1442388
154	0x3df14c3f	0.11782121
155	0xbdc4f7fb	-0.09617611
156	0xbbf7fe8c	-0.007568186
157	0xbd92052c	-0.07129893
158	0x3de32a0b	0.110920034
159	0xbe5ce78c	-0.21572703
160	0x3ec3a16c	0.38209093
161	0x3f2228e9	0.63343674
162	0x3f1dcde7	0.6164231
163	0x3dbe8a71	0.09303749
164	0x3f933150	1.1499424
165	0x3e316cac	0.17326611
166	0xbe68744d	-0.22700615
167	0x3d36d787	0.044639137
168	0x3e4a068d	0.19729061
169	0xbe172df7	-0.14763628
170	0x3c9512b0	0.018197387
171	0xbdebb534	-0.11509171
172	0xbdd10851	-0.10206664
173	0xbdc7813f	-0.097414486
174	0x3e0763d0	0.13221669
175	0x3e260ef3	0.1621664
176	0x3e0bcee8	0.13653147
177	0x3c97d387	0.018533481
178	0xbd7a4dc3	-0.061109316
179	0x3f0e3310	0.55546665
180	0x3ec26da8	0.37974286
181	0x3f28c524	0.6592581
182	0x3f342309	0.7036596
183	0xbd976f4b	-0.07394274
184	0x3f1e6d44	0.61885476
185	0x3dd4b06a	0.10385211
186	0x3d9d1fb5	0.07672063
187	0x3d0407b9	0.032233927
188	0x3dcf97b9	0.10136361
189	0xbe0877e3	-0.13326983
190	0x3e0192fc	0.12653726
191	0xbdb4d1a5	-0.08829049
192	0xbd9b9898	-0.07597464
193	0xbe4b47e0	-0.19851637
194	0x3db354dc	0.0875642
195	0x3e0ac41c	0.13551372
196	0x3e011e36	0.12609181
197	0xbe3e6999	-0.1859497
198	0xbdf5c61c	-0.12000677
199	0x3ef46c9b	0.4773911
200	0xbd0e3dd7	-0.034726944
201	0xbebfea7b	-0.37483582
202	0xbe8a496f	-0.2700915
203	0xbc9f4230	-0.01944074
204	0xbf5c8fb7	-0.8615679
205	0xbe2d47ee	-0.1692197
206	0xbcdf4711	-0.027255567
207	0x3e84c798	0.25933528
208	0x3e3d4d83	0.184866
209	0xbcfd1820	-0.030895293
210	0x3e7d31e9	0.2472607
211	0x3dccd36f	0.10001265
212	0x3e474867	0.19461213
213	0x3e3158dc	0.17319053
214	0xbd257ba4	-0.040401116
215	0xbe650ddc	-0.22368568
216	0xbe378d71	-0.1792505
217	0x3ea38db5	0.3194405
218	0x3e1cb03a	0.153016
219	0xbf3644de	-0.71198833
220	0x3c8e5d4f	0.017378477
221	0xbeadc29d	-0.3393754
222	0xbe5d0f95	-0.21587975
223	0x3e9d90f6	0.3077466
224	0xbef9f54a	-0.48819953
225	0x3e055d91	0.13023974
226	0x3e23ba2e	0.1598899
227	0x3dbad75a	0.09123106
228	0x3e218db7	0.15776716
229	0xbe4cd65a	-0.20003644
230	0xbd36fac7	-0.044672754
231	0x3deb5a5f	0.11491846
232	0x3e4ef03f	0.20208834
233	0xbd2cefce	-0.042220883
234	0x3e8fea23	0.2810832
235	0x3da0858a	0.078379706
236	0xbe20595d	-0.1565909
237	0x3deb467a	0.11488052
238	0x3df027ec	0.117263645
239	0xbee065c6	-0.43827647
240	0xbeaac5da	-0.33354074
241	0xbe8fcd83	-0.2808648
242	0xbec1521d	-0.3775796
243	0x3d946000	0.07244873
244	0xbfb1e1a8	-1.389699
245	0x3dbbc82d	0.0916904
246	0x3eb30052	0.34961182
247	0x3e73ea14	0.23819762
248	0x3e930b14	0.2871939
249	0xbd8e5053	-0.069489144
250	0x3e07856e	0.13234493
251	0x3cfd1492	0.030893598
252	0x3e2d9baf	0.1695392
253	0x3e0e4bf2	0.13896158
254	0x3e401e16	0.18761477
255	0xbe6eb238	-0.23310173

l6.bias f4 [20]
0	0xbe850112	-0.2597738
1	0x3e53cda3	0.20683913
2	0x3d869876	0.06572048
3	0x3e7952f5	0.24348052
4	0xbe1a51bc	-0.15070242
5	0x3d91b4b0	0.071145415
6	0x3d77295c	0.060342178
7	0x3e84801f	0.25879
8	0xbe03dd74	-0.12877446
9	0xbe407b54	-0.18797046
10	0x3e4f7cad	0.20262404
11	0xbcce58da	-0.025188852
12	0x3e67a2f8	0.22620761
13	0x3e4b5ec4	0.19860369
14	0x3e6b2f73	0.22967319
15	0xbe1a1cc1	-0.15050031
16	0xbe36e5ef	-0.1786115
17	0x3dbe6eed	0.09298501
18	0x3be1fbd2	0.0068964744
19	0x3e92119d	0.28529063

l7.weight f4 [20, 20]
0	0xba8bc1b1	-0.0010662583
1	0x3eb39963	0.35077962
2	0x3d81b6b3	0.06333675
3	0x3e6dd14b	0.2322437
4	0xbf27a0a9	-0.6547952
5	0xbc55e347	-0.013054675
6	0x3e0a2d70	0.13493896
7	0xbd4196a6	-0.04726281
8	0xbe9e9ca1	-0.30978873
9	0xbef91a7a	-0.48653013
10	0x3eb895e5	0.3605186
11	0x3e866aa2	0.2625323
12	0x3e6d482d	0.23172064
13	0x3e41cc8a	0.18925682
14	0x3e8ea2e9	0.27858666
15	0xbeab2c32	-0.33432156
16	0x3d1a10ea	0.037613787
17	0xbc9208e1	-0.0178265
18	0x3ea43c35	0.32077184
19	0xbcabda6f	-0.02097818
20	0x3dbb51e2	0.09146477
21	0x3e6f6d0c	0.23381442
22	0xbe4b3ada	-0.19846669
23	0xbd0c65c1	-0.034276728
24	0xbf18c33a	-0.5967289
25	0xbdbb7ad8	-0.0915429
26	0x3e8ffec9	0.28124073
27	0x3e158622	0.14601949
28	0xbf10c969	-0.5655733
29	0xbfa2d088	-1.2719889
30	0x3e1674d4	0.14693004
31	0x3d23a0d1	0.03994829
32	0x3e9c042f	0.30471942
33	0x3e8a0eb6	0.2696435
34	0xbc8fe0bb	-0.017563215
35	0xbf080c24	-0.53143525
36	0x3cd528d1	0.02602044
37	0x3e6bc907	0.23025905
38	0x3e1f4ff0	0.15557837
39	0x3e459d9d	0.19298406
40	0xbbc50462	-0.0060124854
41	0x3d9cf2fb	0.07663532
42	0x3f13fb3f	0.57805246
43	0xbd856aaf	-0.06514489
44	0x3ed419a4	0.41425812
45	0xbe3eb495	-0.18623574
46	0x3dfe7209	0.12424094
47	0xbdfee3bf	-0.12445783
48	0x3e875c3f	0.26437566
49	0x3f72d3cd	0.9485443
50	0xbdfca840	-0.12336779
51	0x3e4597c3	0.19296174
52	0xbdc29d45	-0.09502653
53	0xbe06e17b	-0.13171951
54	0xbd8ec037	-0.06970256
55	0x3ed1b910	0.40961504
56	0xbe464537	-0.19362341
57	0xbe5aa18c	-0.21350688
58	0x3e5c085c	0.21487564
59	0xbdaaa26f	-0.08331763
60	0xbd334ed6	-0.043776356
61	0xbdfc20a3	-0.123109125
62	0x3da6b813	0.08140578
63	0x3e180e6b	0.1484925
64	0x3e33d0b3	0.17560081
65	0x3c87eada	0.016591478
66	0x3e030a24	0.12796837
67	0xbe45b1c8	-0.193061
68	0x3d719105	0.058976192
69	0xbe379d99	-0.17931212
70	0xbd470d9d	-0.048596967
71	0xbe06dbb3	-0.13169746
72	0x3e0ac108	0.13550198
73	0xbc68f2b5	-0.014218022
74	0xbe669bb0	-0.22520328
75	0xbe1909a8	-0.1494509
76	0x3dcedb5c	0.10100433
77	0xbc8060c0	-0.015671134
78	0xbd30da2d	-0.04317682
79	0xbe3df7b1	-0.18551518
80	0x3d9b2b68	0.075766385
81	0xbdbbba96	-0.09166448
82	0x3dace0a1	0.08441282
83	0xbe4876e4	-0.19576603
84	0xbe4154c4	-0.18879992
85	0xbe21a575	-0.15785773
86	0xbd5584fa	-0.05212877
87	0xbdb93685	-0.09043602
88	0xbe08b2a3	-0.13349395
89	0xbdd1dd4f	-0.102472894
90	0xbdafd4bf	-0.085855
91	0xbcad2dfb	-0.02114009
92	0xbd79a6eb	-0.0609502
93	0x3d8e70a6	0.0695508
94	0x3d5bdea3	0.05367912
95	0xbe176759	-0.14785518
96	0xbd6a7d1f	-0.05724823
97	0x3d943704	0.07237056
98	0x3d03d492	0.032185145
99	0x3d1cad38	0.03825113
100	0x3e27270a	0.16323486
101	0x3c30dd10	0.010794893
102	0xc03e050b	-2.9690578
103	0xbc58f16e	-0.013241155
104	0xbec4ae6f	-0.38414332
105	0x3e47b582	0.19502833
106	0x3ea92c6e	0.3304171
107	0x3ea6c334	0.32570803
108	0xbec8af3c	-0.39196193
109	0xbf0e9db8	-0.5570941
110	0x3d75d3f4	0.060016587
111	0x3ead11b0	0.33802557
112	0x3d3e227d	0.04641961
113	0x3d3cd8da	0.046105243
114	0x3e8172b5	0.25282827
115	0xbea1285a	-0.31476098
116	0xbe2df85d	-0.16989274
117	0x3dac50a1	0.08413816
118	0x3d1b3bdf	0.037898894
119	0x3d27579f	0.040855046
120	0x3de7695d	0.11299393
121	0x3eb5da50	0.35518122
122	0x3fa5059f	1.289234
123	0x3e0699d9	0.13144626
124	0xbf4620ba	-0.77393687
125	0x3d282e18	0.041059583
126	0x3eadc323	0.3393794
127	0x3e8daf4e	0.2767281
128	0xbdff6e7c	-0.12472245
129	0xbf42a592	-0.7603389
130	0x3d92cae9	0.07167608
131	0x3d4a68cf	0.04941636
132	0x3e0f9802	0.1402283
133	0x3e4eea9a	0.20206681
134	0x3e14daf6	0.14536652
135	0xbec2e9a9	-0.38068894
136	0xbdb72bc9	-0.08943898
137	0x3e61885b	0.22024672
138	0x3dc1995d	0.0945308
139	0x3e300c03	0.17192082
140	0x3c578e07	0.013156421
141	0x3df46da1	0.119349726
142	0xbce0dcd9	-0.027449058
143	0x3d572a53	0.052530598
144	0xbe14741b	-0.14497416
145	0x3e1d4a90	0.15360475
146	0xbdfe99e5	-0.12431697
147	0x3df7d433	0.12101021
148	0x39849a3a	0.0002529191
149	0x3e156c6e	0.14592144
150	0xbe245ed0	-0.16051793
151	0xbe32ebb4	-0.17472726
152	0xbe3356d3	-0.1751359
153	0xbd879d07	-0.066217475
154	0xbe05c1ff	-0.13062285
155	0xbd65a5f7	-0.05606648
156	0xbcd620a5	-0.026138613
157	0xbdff5cdc	-0.124688834
158	0xbd3344c7	-0.043766763
159	0x3dd0fb53	0.10204186
160	0x3dcdd008	0.100494444
161	0x3d005d64	0.031339064
162	0x3f58dde5	0.84713584
163	0x3d881e12	0.066463605
164	0xbe2c00f8	-0.16797245
165	0xbdece2f9	-0.11566729
166	0x3e2e5c81	0.17027475
167	0x3e9693ff	0.29409787
168	0xbdfdfbe5	-0.12401561
169	0x3c4652ed	0.012104732
170	0x3e257594	0.16158134
171	0xbc84b19d	-0.016197974
172	0x3d34405b	0.044006687
173	0x3e61e773	0.22060947
174	0x3e2fefcb	0.17181318
175	0x3e007032	0.12542799
176	0x3dd137f5	0.10215751
177	0xbdc1cf5d	-0.094633795
178	0x3d881952	0.066454545
179	0x3e5c2b9d	0.21501012
180	0xbd3df2aa	-0.046374
181	0x3cbe2963	0.023213094
182	0x3b0c8f24	0.0021447623
183	0x3d44f99c	0.04808961
184	0x3d60a094	0.05484064
185	0x3cf9914b	0.030464789
186	0xbc6dc764	-0.01451287
187	0x3e0243f4	0.12721235
188	0x3df0147e	0.117226586
189	0xbccbb8aa	-0.024868328
190	0xb9d83ef9	-0.0004124565
191	0xbde30538	-0.1108498
192	0x3e1448e0	0.14480925
193	0xbe301850	-0.17196774
194	0xbe2ebe89	-0.17064871
195	0xbe20d9bf	-0.15708064
196	0xbe470620	-0.1943593
197	0x3c49ee6b	0.01232491
198	0x3d862361	0.06549717
199	0x3c8d2652	0.017230187
200	0x3dc7cb41	0.097555645
201	0xbdae5e3c	-0.085140675
202	0x3e2d96b8	0.16952026
203	0x3de64ecf	0.112455
204	0xbf3c2060	-0.734869
205	0xbde3a12a	-0.11114724
206	0x3e8c9e4d	0.27464524
207	0xbdc212a0	-0.09476209
208	0xbf26e1b3	-0.6518814
209	0xbf920ced	-1.1410195
210	0x3e980444	0.29690754
211	0x3dc52789	0.09626681
212	0x3e0c56c3	0.13704972
213	0x3da191d4	0.07889143
214	0x3df5ef77	0.12008565
215	0xbed06312	-0.40700585
216	0x3e01c6c8	0.12673485
217	0x3de7ce41	0.11318637
218	0x3e45df0b	0.19323365
219	0x3be562a3	0.007000284
220	0xbed848f7	-0.42243168
221	0xbe397543	-0.18111138
222	0xbe05d22b	-0.13068454
223	0xbe2341e4	-0.15943104
224	0x3cd968d5	0.026539246
225	0x3d82fedd	0.063962676
226	0xbe2d7d6a	-0.16942373
227	0x3d18e931	0.037331764
228	0x3e257bd6	0.16160521
229	0xbdd0964e	-0.10184918
230	0xbd93e854	-0.072220474
231	0xbd8820b7	-0.06646865
232	0x3d56c5b4	0.05243464
233	0x3dd2047e	0.10254763
234	0x3df1d656	0.118084595
235	0x3ec199d3	0.3781267
236	0x3dbdd5e3	0.09269311
237	0x3e873464	0.26407158
238	0xbda5393d	-0.08067558
239	0x3eda9561	0.42692092
240	0xbf0e3d36	-0.5556215
241	0x3d6c6452	0.05771286
242	0xbf18e327	-0.59721607
243	0xbd7fb03a	-0.062423922
244	0x3e561ea9	0.20910133
245	0xbe2a6d5c	-0.1664328
246	0xbe040bca	-0.12895122
247	0x3eb54114	0.35401213
248	0x3e61de7b	0.22057526
249	0x3e5e99c1	0.2173834
250	0x3dce1ab2	0.100636855
251	0xbdf1ac11	-0.11800397
252	0xbe854806	-0.26031512
253	0x3da17045	0.07882742
254	0x3e139e51	0.14415862
255	0x3d67ce02	0.05659295

l7.bias f4 [20]
0	0x3ea0a970	0.3137927
1	0xbd5a4044	-0.053283945
2	0xbe87c935	-0.26520696
3	0xbe6e6657	-0.23281227
4	0x3d8bd261	0.06827236
5	0x3ea1de68	0.31614995
6	0x3e84be63	0.25926504
7	0xbc8831e9	-0.016625362
8	0x3e16a22d	0.14710303
9	0xbd4573e1	-0.048206214
10	0xbcda9c99	-0.026686
11	0x3e1bd43a	0.15217677
12	0x3f71d312	0.9446269
13	0xbe6e7482	-0.23286632
14	0x3e81fd4b	0.2538856
15	0xbf1ccb6f	-0.61247915
16	0xbd81c65f	-0.063366644
17	0x3e85e2ab	0.26149496
18	0xbd31d97a	-0.043420292
19	0x3e2ce01a	0.16882363
