Project 1/model.pt (torch, 19133 bytes, 19 tensors)

l1.weight f4 [20, 5]
000000 24 ea a9 be 45 ab 01 3e a0 90 68 be 06 aa 3b bd
       -0.33186448 0.1266299 -0.2271142 -0.045816444
000010 50 af aa be 81 2c 29 be 2f c6 a0 be e9 08 9c 3e
       -0.33336878 -0.16520883 -0.31401202 0.30475548
000020 16 84 a6 3d 72 8e 9c 3e 3c 7b 1d bd 6f 7e 1d 3e
       0.08130662 0.30577427 -0.038447604 0.15380262
000030 46 70 c9 be ae 0b a9 bd b2 4d a9 3e 6d 7c 04 bf
       -0.3934347 -0.08254181 0.3306709 -0.5175236
000040 b3 9e 5c 3e cc 0e 53 be 94 68 fd 3d 7c a0 81 be
       0.21544914 -0.20611113 0.12373462 -0.25317752
000050 1a d4 73 be 85 d7 cd 3e 1e 8b a5 3e bd 16 90 bc
       -0.23811379 0.4020349 0.323327 -0.017588967
000060 5c 49 e1 3e 4a 51 4d be 21 bc e0 3e d4 f6 2b 3e
       0.4400128 -0.2005054 0.4389353 0.16793376
000070 7b 49 3a bd 2e 18 9c 3e 76 5d fa 3c 21 db 8b 3d
       -0.045480233 0.30487198 0.030562144 0.06828905
000080 7d 40 d6 3e 66 76 76 3d 31 3d d8 be 0c 62 7a 3e
       0.41846076 0.060171507 -0.42234185 0.24451464
000090 7f 77 67 be 84 aa 7f be ca 9c d5 bc 15 39 b1 be
       -0.22604178 -0.2496739 -0.02607574 -0.34613863
0000a0 3b 5f a1 3d 1c 0c 5b 3e f6 c6 6e be 46 ee a8 3c
       0.07879492 0.21391338 -0.23318085 0.02062143
0000b0 34 fc e2 be a2 7b d5 3e 62 53 be 3d fc fc 58 3e
       -0.4433304 0.41695887 0.09293248 0.21190256
0000c0 75 b1 58 3d 84 7b aa 3e b0 a0 b6 be cc 2c 4f 3e
       0.05290361 0.3329736 -0.3566947 0.20231932
0000d0 0d 82 b8 3d a2 eb e9 bc 8d 9c ac 3e 41 0d cc be
       0.0900918 -0.028554741 0.3371319 -0.39853862
0000e0 a8 be 59 3e 78 fb af bb a4 0b cc bd ff 02 b4 bd
       0.21264136 -0.0053705536 -0.09963158 -0.08789634
0000f0 8a 1f bb be 80 fb 08 3f e3 da 37 3d a4 51 fb bc
       -0.365475 0.5350876 0.04488648 -0.030678578
000100 6d b8 12 3e 7d 23 93 3e f0 45 0f 3e a5 38 54 3e
       0.14328165 0.28738013 0.13991523 0.20724733
000110 3c c3 7d be 99 4f 94 3e ee f0 83 bd 62 7d a7 bd
       -0.24781507 0.28966978 -0.06442438 -0.08178212
000120 9c 5f d8 be 10 56 b8 3e ce 81 9a 3e 8c 43 fa be
       -0.42260444 0.3600316 0.30177158 -0.4887966
000130 bd fa 7f 3e 7b cf 0f be 53 35 cd bd 6d 7b 56 be
       0.24997993 -0.14043991 -0.100199364 -0.2094552
000140 96 70 9d bd 66 e6 c3 3d 65 22 59 be c4 58 ca bd
       -0.0768749 0.095654294 -0.21204527 -0.09880212
000150 6f be 87 3e 20 b0 59 be 66 0f 12 be 8b df f6 3d
       0.26512477 -0.21258593 -0.14263687 0.12054356
000160 a7 14 4c bd db 0b fa 3e 0f b5 4f be d7 8d 2b be
       -0.049824383 0.4883717 -0.20283912 -0.16753326
000170 f5 86 0e 3e 15 de 24 3e 7d 8c a1 3c 7e 2c b1 bd
       0.1391867 0.16100343 0.01972031 -0.08651064
000180 7f 0a 18 3e e2 f9 91 3e 15 07 99 be 64 62 8e 3e
       0.14847754 0.28510958 -0.29888216 0.2780944

l1.bias f4 [20]
000000 01 52 c0 be cc 44 fc bb 0a 42 0f 3b d0 74 04 be
       -0.37562564 -0.007698631 0.002185943 -0.12935185
000010 25 dd 33 3c f7 f5 2c 3f 0a 70 13 3e 2d c6 ec 3d
       0.010978018 0.6756281 0.14398208 0.115612365
000020 8a 94 5f 3e 59 06 b3 bd 64 54 11 3f 3d 76 4b 3e
       0.21834007 -0.08741445 0.56769395 0.19869323
000030 95 fc fb 3d 2d 0c 87 be 07 67 90 3d 5c 67 00 be
       0.123040356 -0.26376477 0.07050901 -0.12539428
000040 1c da b9 3e 23 10 da be 18 da ea 3c 6e 28 a9 3c
       0.36299217 -0.42590436 0.028668448 0.020649161

l2.weight f4 [20, 20]
000000 a2 1c 0e be 96 08 05 bd 83 92 64 3e 45 58 c3 3c
       -0.1387811 -0.03247889 0.22321515 0.023845801
000010 64 78 95 3e a8 f9 1f 3e 28 76 c4 bd 5b 6b d0 bd
       0.29193413 0.1562258 -0.09592849 -0.101767264
000020 79 0d 5a 3e 5c 0a c1 3e 1c c7 15 3e cd 7b d9 bd
       0.21294202 0.37703216 0.14626735 -0.10619316
000030 c8 3a 83 bd 3f 07 04 3e 45 12 3e be 6f c9 ef 3d
       -0.06407696 0.12893389 -0.18561657 0.11708342
000040 03 b3 2e 3e 4f 64 20 be bf 05 5f 3c 7a a8 ce 3b
       0.17060475 -0.15663265 0.01361221 0.006306705
000050 14 90 95 3e cd 17 93 bc 77 68 b1 bd d6 2d b3 bd
       0.29211485 -0.017955685 -0.08662503 -0.08748977
000060 16 5e 2e c0 62 d9 ab 3d 0b ba 87 3d 72 7e a8 3e
       -2.7244925 0.08391072 0.06627282 0.3290897
000070 6a 15 82 bd 58 47 24 3d 46 61 46 3e 0b d8 29 bd
       -0.06351741 0.0401071 0.19373044 -0.0414658
000080 75 e2 86 3c 91 3c a7 bd 18 fd 08 3d a3 ab 5e be
       0.016465405 -0.08165849 0.033444494 -0.21745162
000090 97 73 47 3c 47 dc 04 3d 22 81 c4 3d 2c b9 1b 3d
       0.012173555 0.032436635 0.09594943 0.03801839
0000a0 e9 08 57 3d 13 28 55 3b 41 5b 91 3e 19 65 bb be
       0.05249873 0.0032525107 0.28389934 -0.3660057
0000b0 3a 06 b3 3c 9a 25 e5 be 6d 35 91 be 37 b4 5f 3e
       0.021853555 -0.4475525 -0.28361073 0.2184609
0000c0 e0 ad d4 3d 4e 2d cc 3d 00 93 22 be 35 e4 a5 3e
       0.103847265 0.09969579 -0.15876389 0.3240067
0000d0 35 bc 9c bc 64 17 9e bc 20 fc e7 3d 9d ea 5c 3e
       -0.019132713 -0.019298263 0.11327386 0.21573873
0000e0 81 e8 ce 3d 60 87 53 3e 5d bd 33 be e8 4a 9f 3e
       0.1010294 0.2065711 -0.17552705 0.31111836
0000f0 c8 5f b7 3d ca 9a 13 3e 5a f5 8f 3e 1e 1e d2 3d
       0.08953816 0.14414516 0.28116876 0.10259651
000100 49 ef 0c 3d cb 8a d9 be b6 18 40 3e 7e ed f3 3c
       0.034407888 -0.42488703 0.18759426 0.029776331
000110 01 8b db bb 31 52 d3 3d 9b cf 5e 3d 27 a2 94 3d
       -0.00669992 0.10318411 0.054397207 0.072574906
000120 e5 98 6f 3d a4 cb 04 3e 72 15 73 3d ea f1 d8 bd
       0.05849542 0.12968308 0.059346624 -0.105930164
000130 74 8d 5d 3d 0d cf c7 bd df 9d 40 be ce 56 67 3e
       0.05408998 -0.09756289 -0.18810223 0.22591707
000140 59 f8 86 be 4b ef 44 3e f8 36 6a be 2c 4d f7 3d
       -0.2636135 0.19231908 -0.22872531 0.12075266
000150 ac 5f 94 3e e6 83 8e be 7b 16 ae 3d 87 04 2b 3f
       0.28979242 -0.27835006 0.085003816 0.66803783
000160 b8 b2 d4 bd 16 16 25 3e 75 2b af 3e c8 a4 b3 3c
       -0.103856504 0.16121706 0.34212843 0.02192916
000170 27 e1 16 3e c0 dd 34 3d 5b 41 bc bd ef b5 4b bd
       0.14734326 0.04415679 -0.09192153 -0.049734052
000180 cb 19 60 be 7e 93 be 3e fa e7 4e be 4e 32 5e be
       -0.21884839 0.37221903 -0.2020568 -0.21698877
000190 4f de 92 3e 68 6f 9c 3d 74 87 24 3e 44 49 56 3e
       0.28685233 0.076384366 0.16067296 0.20926386
0001a0 38 2b 95 bd dd 5a 09 be 3d 59 07 3e cd c1 1b be
       -0.07283634 -0.13413568 0.13217635 -0.15210648
0001b0 b5 ec a3 bd f3 b3 02 3d cb ad ea bd 5c 5f 5a 3e
       -0.08004133 0.031909894 -0.1145893 0.21325439
0001c0 7a d1 71 bd b4 fa 21 3d 48 36 f6 3d ac f5 df 3e
       -0.059037663 0.03954573 0.12022072 0.4374212
0001d0 6d 9f e4 bd 24 76 b5 3b 1f 8d da 3d e1 ef 93 3d
       -0.111632206 0.005537765 0.10671448 0.07223488
0001e0 c9 c9 50 3e 69 5e d3 3d e8 2e 15 be aa e9 54 bd
       0.20389475 0.10320742 -0.14568675 -0.051980652
0001f0 9e d5 8b 3e 66 b9 55 3e 68 63 a8 bc 01 8b 86 bd
       0.27311414 0.20871505 -0.020555213 -0.06569482
000200 58 16 85 3d fe de 31 3e aa 57 69 3d c3 27 99 3e
       0.06498402 0.17370221 0.05696837 0.29913148
000210 81 00 ba 3c 04 a4 5a 3e af bd 3d 3e 1f 92 0a bc
       0.022705318 0.2135163 0.1852939 -0.00845769
000220 39 e5 39 3e fb 0f 72 3c 4b 64 c6 3d fd 48 ab 3e
       0.18153848 0.014774318 0.09687098 0.33454123
000230 a1 4f c2 3e 4b 85 07 be 7c 92 8b 3e 55 cc 90 3d
       0.37951377 -0.13234441 0.27260196 0.07070223
000240 8a 5b 96 3e 64 55 dc 3e 5b 82 ca 3d 35 f8 83 be
       0.29366714 0.43033898 0.098881446 -0.25775304
000250 72 08 75 3e 9d 6e 5e 3e 80 5f 8c 3e 1b b4 3c 3e
       0.23929003 0.21721883 0.2741661 0.1842808
000260 d2 91 6c 3e 7c 3b d9 3d 40 c9 99 3e e6 da 28 3e
       0.23102501 0.10607049 0.30036354 0.16489753
000270 a3 0d d6 3d ff 0c 98 be 91 cd 51 be 35 cc ca bd
       0.1045182 -0.29697415 -0.20488574 -0.09902231
000280 96 21 88 3e d9 ca 3d bd ca 1c ee bd 82 03 b4 3e
       0.26588124 -0.04633603 -0.11626585 0.35158926
000290 6b 51 b7 bc 6a 5e 56 3d 77 3f ee bc 84 33 1d be
       -0.02237769 0.052336134 -0.029082997 -0.15351683
0002a0 03 e9 ac 3e 24 6e 63 3e 7d df 17 3e 1f 0a 53 3e
       0.33771524 0.22209984 0.14831348 0.2060933
0002b0 7a fb aa 3e 21 3d 61 3e c0 7d 4b bd 16 9f 66 3e
       0.33394986 0.21995975 -0.04968047 0.22521624
0002c0 57 0e 51 bd 40 54 41 be ad 22 6b be 3b fd 0b 3c
       -0.051039066 -0.18879795 -0.22962447 0.008544262
0002d0 87 36 c1 3d f0 50 61 3c 74 75 16 3e 48 d2 8a 3e
       0.094342284 0.013752207 0.14693242 0.27113557
0002e0 c2 d6 c3 3e 40 e6 94 3e 86 73 66 bd 1e b5 6f be
       0.38249785 0.29081917 -0.056262515 -0.23408934
0002f0 fd 25 7d 3e ee 23 9a bd bc f4 8c 3e 43 35 74 3e
       0.24721523 -0.07526384 0.27530468 0.23848443
000300 7c d4 97 3e 6a 6d 64 3e 39 3c 3d 3e ff 36 99 3e
       0.296543 0.22307363 0.18480004 0.2992477
000310 e8 dd c0 3d 59 32 6d bd fe e0 ae bd b1 40 88 3e
       0.09417325 -0.057909343 -0.085390076 0.26611856
000320 4d 7a aa 3e b2 db dd bb 14 64 ba 3d a2 95 50 3e
       0.33296433 -0.0067705745 0.0910112 0.2036958
000330 79 cb f8 3d 44 2e b2 3e b0 1a d4 3d 4b 91 02 be
       0.12148184 0.34800923 0.10356653 -0.12750737
000340 31 d5 a2 3e d1 b7 72 3e 5b 8a 0b 3e 42 ae 61 3d
       0.31803277 0.23702933 0.13626997 0.055097826
000350 f6 1f 87 3e c9 18 86 3e df 10 44 3d 41 3e 9b 3b
       0.26391572 0.26190785 0.047867652 0.004737646
000360 ed a8 0e 3e 04 64 8b be 00 8a 1e bd d3 a9 5b 3e
       0.13931628 -0.27224743 -0.038705826 0.21451502
000370 05 9d 3e 3e c4 8e c1 bc 8b 1c 3b be fc 9e 7f 3d
       0.18614586 -0.023627646 -0.18272607 0.06240748
000380 15 25 15 3e dd 1e 68 3e 5e 59 81 3e e4 b4 89 be
       0.14564927 0.22668023 0.25263494 -0.2689582
000390 0e 5a af bc 36 18 bb 3d a8 b3 54 3e 2a 4f 9b 3e
       -0.021405246 0.09135477 0.20771658 0.30333835
0003a0 87 0a 74 3e 12 83 40 3e 15 40 1c be d6 20 29 3d
       0.23832141 0.188 -0.1525882 0.04129108
0003b0 ee 88 6a 3d d5 dd 26 be 9d 0d 6e be 35 0e cc 3d
       0.057259493 -0.1629556 -0.2324738 0.09963647
0003c0 a8 e3 01 3e b6 b2 ca 3d 4c 76 20 bc 6c fd 86 3e
       0.126845 0.09897368 -0.009793829 0.2636522
0003d0 68 37 a0 3e 28 78 ca bb 2a c0 66 be 1e 43 80 be
       0.31292272 -0.0061788745 -0.22534242 -0.25051206
0003e0 55 bc d1 3d 05 10 d2 3e 13 31 41 3c 2c 3b 89 bd
       0.102409996 0.41027847 0.011791485 -0.06700739
0003f0 f3 8f 8f 3d de d0 41 3e ad 3e fd 3d df c7 2b 3e
       0.07009878 0.18927333 0.1236547 0.16775464

l2.bias f4 [20]
000000 cc 6b 9e 3d 30 97 57 be 69 d4 8d 3e 1e dd 86 3e
       0.07735404 -0.21053767 0.2770112 0.26340574
000010 12 89 83 be 06 da 79 be d7 f7 2a 3e 33 8d 93 3e
       -0.25690514 -0.24399576 0.16696106 0.28818664
000020 08 df 7c 3e 20 22 13 3e 7b 22 b1 3e df f1 42 3e
       0.24694455 0.14368486 0.3459662 0.19037579
000030 21 ec 97 bd db f7 08 3e c9 94 8e 3d fe e5 52 3e
       -0.07418085 0.133758 0.06961972 0.20595548
000040 f1 cb 82 bd 5f 9f a7 3d 26 f1 34 3e 19 60 fe 3d
       -0.06386555 0.081846945 0.17670116 0.12420673

l3.weight f4 [20, 20]
000000 59 77 c7 bd 70 83 b7 bd 24 23 09 bd 2c 00 ee bd
       -0.09739561 -0.089606166 -0.03348078 -0.116211265
000010 b1 b0 f0 3d 8d fd 36 3e 0d fc 71 3c 06 51 df 3d
       0.11752451 0.1787016 0.014769566 0.10904126
000020 7e df b4 3d 80 1f 54 be 2f 9c 79 bd ba 91 52 bd
       0.0883169 -0.20715141 -0.060939964 -0.051408507
000030 47 da 3b be d1 6b 99 bc a2 0a 16 be 7d d5 3a 3d
       -0.18344985 -0.018728169 -0.14652494 0.045613755
000040 89 7a 46 be ad b0 7a bd dd d9 41 be f6 fe 81 bd
       -0.19382681 -0.061203647 -0.18930764 -0.06347458
000050 7e eb bd 3c 4e ed 54 3f 0e 1b d9 3d 25 23 22 3e
       0.02318358 0.831746 0.106008634 0.15833719
000060 66 a8 9a 3f eb bb 6f c0 ef 1f df bd 04 a2 e4 3d
       1.2082641 -3.7458446 -0.10894763 0.111637145
000070 84 09 5a be a7 16 1c 3d db c1 cd bd a1 75 06 bd
       -0.21292692 0.03810754 -0.100467406 -0.032827023
000080 97 5d 0c 3e b4 3c 01 be 77 9d ad bd 9e ba 2a 3e
       0.13707577 -0.12620813 -0.084773 0.16672751
000090 5c 8d 7b 3e 83 1f 10 3e 99 fd 82 be 1a 1b 93 bd
       0.24565643 0.14074521 -0.25584105 -0.071829036
0000a0 8d 1b 8d 3e a3 7e f2 bf 80 ac b0 be 7a c7 9e be
       0.27560082 -1.8944896 -0.34506607 -0.31011564
0000b0 b8 72 6b bf 01 c2 f4 3d 3f 68 5d 3e 1f 9a 8e 3e
       -0.9197192 0.11951066 0.21621798 0.2785196
0000c0 17 7a 28 3e 51 54 7e 3e 6a 11 9c 3e c7 92 9f 3e
       0.16452824 0.24836852 0.30482036 0.3116667
0000d0 62 92 3d 3e 79 e8 42 3d a2 b3 98 3d dd f9 1d 3e
       0.18512872 0.047584984 0.07456137 0.15427347
0000e0 d4 48 4f bd 7a 87 62 bd 12 95 7b 3e f8 ad 8e 3b
       -0.050606564 -0.05530498 0.24568585 0.004354235
0000f0 36 d3 99 3e bd 7c f3 be a7 e2 92 be 63 33 82 be
       0.30043954 -0.47556105 -0.28688547 -0.2542983
000100 56 35 e4 be 74 3f ef 3e 2e a2 9a 3e 66 bf 17 3e
       -0.44571942 0.46728098 0.30201858 0.14819106
000110 cf cb ac 3c ea ea 5a 3e ab 1d 70 3d a7 4e e0 bc
       0.021093277 0.21378675 0.058622044 -0.027381254
000120 bd d2 7a 3e d8 6b 15 be 94 a8 19 3e 30 07 6a bc
       0.24494453 -0.1459192 0.15005714 -0.01428394
000130 29 41 a3 3e a3 26 87 be 44 5d a7 3e f2 06 cd 3d
       0.3188565 -0.26396665 0.32688344 0.1001109
000140 50 6f 9f 3e e2 ae 4d 3d 81 5a aa bd 3c 87 e9 3d
       0.31139612 0.05021561 -0.083180435 0.11402747
000150 08 66 f0 3d 3c b2 d5 3c 0b 49 91 3d 1b be 7f 3e
       0.11738211 0.026085965 0.0709401 0.24974863
000160 e9 2d 96 3d c5 6b 13 3d aa d9 98 3e 4c 38 16 3e
       0.073329754 0.03599145 0.29853565 0.14669913
000170 13 9d 83 3e 54 4c 86 3e ca d1 28 3d 66 88 23 3d
       0.25705776 0.2623011 0.041215695 0.039925
000180 7c 4e 8f 3e 8f 87 5c be e6 f4 81 3e 38 56 4c 3e
       0.27989566 -0.21536086 0.25382155 0.19954765
000190 af 4a 3c 3e 57 57 ea bd 55 6d 8f bd 65 1a e7 bd
       0.18387865 -0.1144244 -0.07003275 -0.11284331
0001a0 e8 5e 0a be 8a 1f 1b 3d 53 b3 17 3e 78 f4 4f be
       -0.13512766 0.037871875 0.148145 -0.20308101
0001b0 f5 ae cb bd 22 1f 0e be e2 5c 09 be cf 37 2a be
       -0.0994548 -0.13879064 -0.13414338 -0.16622852
0001c0 d1 cd 87 3d 47 3e 4e 3d da 5f 0e bc 4f 61 73 bd
       0.06631053 0.05035236 -0.008689845 -0.059418973
0001d0 71 05 bb bd ce 1c 21 3e f0 c7 0a 3d 84 04 c9 3d
       -0.09131897 0.15733644 0.03388208 0.098153144
0001e0 65 01 83 3d 66 0a 41 40 0e 3f 5a be 67 6f 8d be
       0.0639675 3.0162597 -0.21313116 -0.27624056
0001f0 86 1f 30 bf 9e c3 ba bc 35 53 18 3e 48 d3 25 bd
       -0.687981 -0.022798356 0.14875491 -0.040484697
000200 47 ca 80 bd 1c c0 86 3e 06 ce 12 be 2e 20 a5 3d
       -0.06288581 0.26318443 -0.14336404 0.080627784
000210 97 48 33 3e 20 53 b5 3d 28 99 2e be 94 7f 2f 3e
       0.1750816 0.088537455 -0.17050612 0.17138511
000220 11 5e 2a be d7 7d 9f be 25 64 d5 3d 83 42 5c bd
       -0.16637446 -0.31150696 0.10419492 -0.053774368
000230 1b 60 37 3e 47 f3 b9 bf 8c a7 04 3d 30 67 d9 be
       0.17907755 -1.4527367 0.032386348 -0.42461538
000240 c0 b8 88 be 93 04 a9 3e bb ad d0 3d 6f b0 bd 3e
       -0.26703453 0.33011302 0.101893865 0.3704867
000250 0b c6 c7 bd 6d 8f 3a 3e 2b 79 ac 3e 9d ce 99 3e
       -0.097545706 0.18218775 0.33686194 0.30040446
000260 04 d1 f6 bd e6 ab 80 3d 85 b4 30 3e 68 ef 45 3e
       -0.12051585 0.06282787 0.17256363 0.19329607
000270 eb 10 f3 bc 9c ec 5b be d2 84 f9 3d 89 38 82 3e
       -0.029671153 -0.21476978 0.121835366 0.25433758
000280 f4 79 eb 3d 46 2c 40 bd a2 94 50 be 3e fc 17 bd
       0.1149787 -0.046917222 -0.20369199 -0.03710579
000290 58 73 36 3d dc 6d 05 be bc 8f 82 bd f7 a3 41 be
       0.044543594 -0.1303019 -0.063750714 -0.18910204
0002a0 0b da 52 be 9f 63 aa 3d ba 44 a3 3d 58 ee 26 bd
       -0.2059099 0.083197825 0.07972093 -0.040754646
0002b0 70 87 0c be 41 c7 ef 3a 0f 57 2f be ef 0c 5b 3d
       -0.1372354 0.0018293635 -0.17123054 0.05347913
0002c0 9b 30 00 3e ac fe 29 bd 1d 14 1c 3e d0 df 1f be
       0.12518542 -0.04150264 0.15242048 -0.15612721
0002d0 c8 5b 87 3d b5 81 14 3e 93 a8 8d bd 6b e2 de bd
       0.06609303 0.14502604 -0.069169186 -0.108830296
0002e0 71 46 81 bb 6c 0a 1f 3d d4 a5 1a 3d 0a bb 67 bd
       -0.003945165 0.0388283 0.037755802 -0.05657486
0002f0 cb fc f7 bd 79 90 9d bc 26 3b 91 bc 0d 74 36 be
       -0.12108763 -0.019233929 -0.0177284 -0.17817707
000300 da f3 cc bd 40 da 4c be 06 7c 99 3d a0 e6 41 be
       -0.100074485 -0.20005131 0.07494359 -0.18935633
000310 a5 e7 52 3d ac bc 8d 3d 7a 88 53 3d 27 5b 4a be
       0.051490445 0.06920752 0.051643826 -0.19761334
000320 da a3 7b 3e 38 19 1e be 21 51 15 be 8e 77 d0 be
       0.24574223 -0.15439308 -0.1458173 -0.40716213
000330 0a 11 1a bf 55 94 b5 3e f2 f4 a0 3d 72 29 8c 3e
       -0.6018225 0.3546473 0.078592196 0.2737537
000340 21 95 08 3e 6b 80 42 3e b4 34 9b bd f8 a0 5f 3e
       0.13338138 0.189943 -0.07578412 0.21838748
000350 33 8d 28 3d 8f 55 57 bd 2d 4b 81 3e ae 2e af bd
       0.041150283 -0.05257183 0.25252667 -0.08553825
000360 a4 bd 9b 3d e4 55 91 be f8 10 83 3e b4 28 f0 bd
       0.076045305 -0.28385842 0.25598884 -0.117265135
000370 cb ad 0d be 69 f8 01 3f 61 56 00 bf f5 87 3c be
       -0.13835828 0.5076967 -0.50131804 -0.18411238
000380 32 50 89 bb 01 24 f3 bd cb b5 96 3b db 4c b4 3e
       -0.004190468 -0.118721016 0.004599308 0.35214886
000390 0b 37 c0 3e 89 05 8e 3e b4 44 80 3e a0 5d 81 3e
       0.37541994 0.27738598 0.25052416 0.25266743
0003a0 95 58 7b 3e 8b b1 5d bc f2 54 15 3e 78 ea e0 bd
       0.2454551 -0.013531099 0.14583185 -0.10982221
0003b0 a5 88 69 3d ad 3d 97 be 4c 7f 1d 3e 15 37 8c 3e
       0.05701508 -0.29539242 0.15380591 0.27385774
0003c0 fd 6f f2 3d 0c 3a df 3e 86 52 0c bd 0d 40 82 be
       0.11837766 0.43598974 -0.034258388 -0.25439492
0003d0 29 4c 02 be 77 e5 c9 3e 44 a0 08 3e ea 8b 8d 3e
       -0.12724365 0.3943288 0.13342386 0.27645808
0003e0 58 69 3e bc f4 cc 41 3e 0d 84 86 3e e4 d5 bf 3c
       -0.011621796 0.1892584 0.26272622 0.02341742
0003f0 e2 c0 cd 3d b2 2d 3a 3e 35 48 a2 3e ce 1b 67 3e
       0.10046555 0.18181494 0.31695715 0.225692

l3.bias f4 [20]
000000 3b bb b8 bc 19 85 48 be 75 22 2f 3e c9 51 18 3e
       -0.022550216 -0.19582023 0.17102988 0.14874949
000010 f9 ed af bb d1 6b 05 be f6 b8 40 be 78 c9 6f 3e
       -0.0053689447 -0.1302941 -0.18820557 0.23416698
000020 45 f6 47 be fb 84 8a bd 7c 58 03 3e a7 84 8e 3d
       -0.19527538 -0.06763645 0.12826723 0.06958895
000030 25 90 8d 3e 59 d5 81 bd 6e a5 48 3e 31 ec dd bd
       0.27649036 -0.06339521 0.19594356 -0.108360656
000040 a0 1a b4 3d cf fd 31 be 1c 85 bc 3d 20 cf a9 3e
       0.08794141 -0.17381977 0.09205076 0.33165836

l4.weight f4 [20, 20]
000000 14 35 93 bd 52 ab d8 bd c0 b6 06 be db 63 ea bd
       -0.07187858 -0.10579552 -0.13155651 -0.11444827
000010 02 12 95 bd a9 a7 ef bd cc 14 2c be 83 6e 43 bd
       -0.07278825 -0.117019005 -0.16804808 -0.047712814
000020 bb c7 43 be 43 b1 c7 3d 9c 7c 1d 3e 94 fc 1f bd
       -0.1911916 0.09750607 0.15379566 -0.039059237
000030 d2 78 13 be 9b 80 e7 bd dc 32 55 3d a7 a4 c5 3c
       -0.14401558 -0.113038264 0.052050456 0.024126364
000040 4c 00 41 be 9d 6f 43 3e c2 b6 28 be 9b 95 29 be
       -0.1884777 0.19085546 -0.16475967 -0.16560976
000050 9a bf d0 3d 12 33 98 bd 05 96 42 3d 2a ce 17 be
       0.10192795 -0.07431616 0.04750635 -0.14824739
000060 54 96 64 be 8f f6 91 3d b1 32 10 3e 58 20 06 bb
       -0.2232297 0.071271054 0.14081837 -0.0020466056
000070 d9 ca d7 bd fb a1 2d be a7 26 17 3d 56 06 4f be
       -0.10536737 -0.16956322 0.036902096 -0.2021726
000080 4d d7 80 3d 6f 4f 1a 3d 6f 89 ab bd 0f f6 f3 bd
       0.06291065 0.03767341 -0.08375823 -0.11912166
000090 36 66 4b be 33 7c ad bd ea 1c d6 3d d9 33 9c bd
       -0.19863209 -0.08470955 0.10454734 -0.07627077
0000a0 33 39 21 3d 34 70 89 3e 3a 42 ad 3e 3c fd 0d be
       0.03936119 0.26843417 0.3383959 -0.13866132
0000b0 46 12 0a 3e 2a 3f f7 3d e7 cb 35 bf 2d 06 96 3d
       0.13483533 0.120725945 -0.71014255 0.07325397
0000c0 96 08 30 be 1f 6c c3 3d c4 7f 65 be 78 fd da 3d
       -0.17190775 0.09542107 -0.2241202 0.106928766
0000d0 1e 51 22 be 99 9d a5 be 6a 78 a8 be 9c 79 d1 3e
       -0.15851256 -0.323468 -0.3290437 0.40913093
0000e0 26 10 10 be f8 e7 ac 3d 8f d1 4c be c1 78 2a 3a
       -0.1406866 0.08442682 -0.20001815 0.0006502979
0000f0 c6 86 43 3e be 32 91 3d f3 3f 6e be 5e 27 03 3e
       0.1909438 0.070897564 -0.23266582 0.12807986
000100 da 4c 9a bc 78 87 2a be 17 3c af bf ee aa dd bd
       -0.018835474 -0.1665324 -1.3690213 -0.10823618
000110 86 3e c1 bc c6 66 c5 bd 14 eb 84 bd 20 c5 94 3d
       -0.023589384 -0.09638743 -0.0649015 0.07264161
000120 c6 dc ed 3e 65 06 6f 3d 1c fc 8e bf f0 ff b9 bd
       0.464575 0.058355708 -1.1170688 -0.09082019
000130 1a 21 1b be 7d 2a 69 be 3d 47 55 3f b9 3e ee 3d
       -0.15149346 -0.22770114 0.83311826 0.11633057
000140 3b 1c 1b be 7f 3a 98 bf 0e c2 8d bc 6d 5e a6 bd
       -0.15147488 -1.1892852 -0.017304447 -0.08123479
000150 53 1f 3d be 8a bb 81 bd 50 ad 87 3d 2b 75 cd bc
       -0.1846898 -0.06334598 0.066248536 -0.025080284
000160 22 1b cf bc 4d 1d 29 be f9 0c 64 3e 1e 47 1b bd
       -0.025281493 -0.16515084 0.22270574 -0.03790962
000170 ac 6d 22 3e 70 cb 52 3f 9a 42 53 bd e0 59 6f 3c
       0.15862149 0.8234167 -0.051577188 0.01460883
000180 fe 9c bc 3d e5 4a 10 3e 96 74 81 3d b3 50 2e 3e
       0.092096314 0.1409107 0.06321065 0.17022972
000190 a7 90 41 be 81 d9 46 be 8b 2a 97 bd d9 06 dd bd
       -0.18902837 -0.19418909 -0.07381161 -0.10792322
0001a0 b9 42 80 bd 7e a7 66 3d 3c 9f 64 bd f9 14 4a 3d
       -0.06262726 0.056312077 -0.05581592 0.049336407
0001b0 08 9a 1e 3e 93 3c 2e 3e 97 97 19 3e 28 13 67 3c
       0.15488446 0.17015295 0.14999233 0.014103688
0001c0 76 c1 c6 bd 1b fa 30 be a9 e5 d0 3d a5 c2 b3 bd
       -0.097048685 -0.17282908 0.10200054 -0.0877736
0001d0 8b ba c6 3c a3 b3 ca 3d bf fe 58 3d c3 b8 ef 3c
       0.024258872 0.09897544 0.05297732 0.029262906
0001e0 5a 50 2f 3d 09 b0 94 be 56 89 80 3e d1 79 47 3d
       0.04280124 -0.29040554 0.2510478 0.048700158
0001f0 aa 73 93 3e b4 16 6a 3d 4b 9e 92 3d 68 f1 0f 3e
       0.28799182 0.057150558 0.07159098 0.14056933
000200 34 93 89 bd 79 4c 4a 3e 16 2a e9 3d da a6 f6 3d
       -0.0671753 0.19755735 0.113849804 0.12043543
000210 48 4e e6 3d df 6e a2 3f d5 f7 f8 3c e1 73 4c be
       0.112454 1.2690085 0.030391613 -0.1996608
000220 12 48 82 3e 49 2f b2 bc 04 98 06 3b 17 56 ca 3d
       0.2544561 -0.021751063 0.0020537386 0.098797016
000230 85 6c 46 3e 28 89 e7 be f8 9e 7c 3e 99 01 bf 3d
       0.19377334 -0.4522183 0.24670017 0.093264766
000240 e1 d7 ce 3d 3b 2d 26 be df cf 25 bd 88 6b 2e 3c
       0.100997694 -0.16228192 -0.040481444 0.010645755
000250 75 47 46 be 86 cd da bd 29 51 04 3e 9b 12 b8 3e
       -0.19363196 -0.10683732 0.12921585 0.35951695
000260 33 fc 6f 3e 01 9f 94 3f 18 8e e2 3d 4b 5c ac be
       0.2343605 1.1611024 0.110622585 -0.33664164
000270 7c 32 82 3e ec b8 93 3e ba 4c 61 bc e8 ef 5f 3e
       0.25429142 0.28852022 -0.013751203 0.2186886
000280 df 87 ec bd 37 83 27 3f 4a 87 01 3e 96 b5 08 be
       -0.11549353 0.6543459 0.12649265 -0.1335052
000290 72 0e bc 3e 82 23 27 bc 33 d8 c8 3e 40 83 32 3e
       0.3672977 -0.010201337 0.39227447 0.1743288
0002a0 16 72 17 3e 15 a0 06 3e 66 58 0a be c7 47 76 be
       0.14789614 0.13147004 -0.13510284 -0.24050818
0002b0 b3 17 b7 bd 9f a9 00 3e 50 7e a0 be 50 7b 08 3f
       -0.08940067 0.12564705 -0.3134637 0.5331316
0002c0 7c 72 ad bd 0a e0 f5 3b 2a 87 c2 3e cf f1 13 be
       -0.08469102 0.007503514 0.37993747 -0.14447711
0002d0 63 ad d7 3d b6 56 4e be 7a c1 21 bd de e5 15 3e
       0.10531118 -0.20150265 -0.039491154 0.14638469
0002e0 cb b2 29 bd 99 55 3e 3e ee 5f 2c 3e e7 fa c2 bc
       -0.041430276 0.1858734 0.1683347 -0.02380128
0002f0 2d 6f 66 bd f9 0c e9 3d dc 00 b6 3c a9 fc 1f be
       -0.05625837 0.113794275 0.022217207 -0.15623726
000300 eb 27 33 3c 98 d7 18 be a5 9a 27 be fe bc 19 be
       0.01093481 -0.14925992 -0.16367586 -0.15013501
000310 91 12 d8 bc 82 2b 42 3d d2 50 87 bd 43 51 86 bd
       -0.02637604 0.047404774 -0.06607212 -0.06558468
000320 15 82 d9 3d 63 95 3f bf 77 d0 ec 3d 6c dd 09 3e
       0.10620514 -0.7483732 0.11563199 0.13463372
000330 1f b3 5e 3e 73 08 24 3e 9f 73 87 3e cf d4 1e 3e
       0.21748017 0.16018848 0.264554 0.15510868
000340 d6 ec da 3c d0 49 d3 3c 82 cd de 3c 86 c9 3d 3e
       0.02672426 0.025792032 0.027197603 0.18533906
000350 8e 06 28 3e e0 6f 49 3f 1a 01 28 3d 59 fc a7 be
       0.1640875 0.7868633 0.041016676 -0.32809713
000360 36 9b 62 3e ad e6 fc 3d 83 64 a9 3d ee d2 95 3e
       0.22129521 0.123486854 0.08271124 0.2926249
000370 65 f3 ec 3d 4f db 9f 3d 99 af 10 bc 60 59 7e ba
       0.11569861 0.07805502 -0.008830928 -0.0009702649
000380 21 aa 19 3e 42 2d 63 3c f4 78 c9 3b 13 da 6d 3d
       0.15006305 0.013865771 0.006148452 0.0580693
000390 0a 19 48 be e4 ef 44 bd 07 d9 4f 3d 28 72 26 3d
       -0.19540802 -0.04808034 0.050744083 0.04063621
0003a0 43 64 29 bd 87 a2 bc 3d 3d 57 37 3d 88 00 61 3d
       -0.041355383 0.09210687 0.04476093 0.054932147
0003b0 d3 a1 ab bd 47 47 af 3b e3 24 7e bd f5 b0 3e be
       -0.08380475 0.005349073 -0.062046897 -0.18622191
0003c0 30 97 83 3a 58 1f a7 bf 80 cf 0a 3c 6f da 28 3d
       0.0010039564 -1.305644 0.008472323 0.04122394
0003d0 fe bc 49 bd 81 93 71 3d 68 92 4f 3e 6f 6c d5 3d
       -0.049252503 0.05897856 0.20270693 0.10421073
0003e0 46 35 fe 3d 01 70 ce bd 71 62 86 3e 21 b5 70 3e
       0.12412505 -0.10079957 0.2624698 0.23506595
0003f0 7f 4a f8 3d f0 9f 59 3e 20 02 aa bd d2 dd a2 be
       0.12123584 0.21252418 -0.083011866 -0.3180986

l4.bias f4 [20]
000000 04 60 d5 bd 59 c1 cc bc 85 5f 2e be 26 00 3c 3e
       -0.10418704 -0.02499454 -0.17028625 0.18359432
000010 ac 37 51 3e e7 13 4a be b2 99 25 3e c9 92 7f 3d
       0.20431393 -0.19734155 0.16171911 0.062395845
000020 7c 0e 61 bc f7 06 32 3d fd ae 5b 3e fb d0 1c be
       -0.0137363635 0.043463673 0.21453471 -0.15314095
000030 81 3a 18 be 11 d3 8c bd 70 b2 a3 3c e9 5b 19 bd
       -0.14866067 -0.06876195 0.019982547 -0.037441168
000040 54 16 de bd 9b 73 8d 3e 5c 56 70 3e 66 69 bc bd
       -0.108441025 0.27627262 0.23470443 -0.09199791

l5.weight f4 [20, 20]
000000 d1 39 34 3d 0a 7b 46 be c3 03 1d 3d 20 ee 5c be
       0.04400045 -0.19382873 0.038333666 -0.21575212
000010 a6 9e 2b 3d 69 3a ab bd 8c 2b 8f 3d 21 38 3d 3e
       0.041899346 -0.0836075 0.06990728 0.18478443
000020 b1 5b 55 3d 1a cb 62 bc ae c9 4d be 38 55 a7 3d
       0.052089397 -0.0138423685 -0.20096466 0.08170551
000030 c6 5e 89 bd f5 87 83 3d b4 8e 33 be 4d d3 1f 3e
       -0.0670753 0.06422416 -0.17534906 0.15607949
000040 1e d3 14 bd f3 c6 f6 bd 89 2b c9 bd c1 19 6f bc
       -0.03633415 -0.12049665 -0.09822757 -0.014593543
000050 6b 4b b7 bd 85 98 a1 3d a3 6d 98 be 53 57 c2 be
       -0.08949932 0.07890419 -0.29771146 -0.37957248
000060 6a 2b 50 bd 83 25 ed 3d 20 af 42 bd 8c e8 15 3e
       -0.050822653 0.115794204 -0.047530293 0.14639491
000070 0d b2 e8 be 81 a8 4f bd 32 68 6b 3e 1e 92 d9 3d
       -0.45448342 -0.050697807 0.22988966 0.10623573
000080 07 27 6f 3e b4 33 09 bf 56 66 31 bf bf 11 9f 3e
       0.23354732 -0.5359452 -0.6929678 0.31068227
000090 da b4 a2 bd 29 05 74 3e 76 cc 81 bc d9 aa 2c 3c
       -0.07944651 0.23830093 -0.015844565 0.01053878
0000a0 b5 1d 17 be 30 d3 8e bd b8 db e1 be 4a 9d 2c bf
       -0.14757426 -0.069738746 -0.44112945 -0.67427504
0000b0 72 0d 12 3e 5a c1 43 be 23 3d 50 bd 72 4c 1e 3e
       0.14262941 -0.19116727 -0.050839555 0.15458849
0000c0 4d 65 04 bf c6 07 40 3e 62 0b 33 3d dc 17 d0 bd
       -0.5171707 0.18752965 0.043712027 -0.10160801
0000d0 cf 22 b4 bd 9c 79 a8 be 24 42 04 bf 32 ac 09 bd
       -0.08795702 -0.3290528 -0.5166342 -0.033611484
0000e0 c3 51 be 3d a0 08 3a 3e e3 37 9f 3e 07 b2 2d 3e
       0.092929386 0.18167353 0.31097326 0.16962443
0000f0 e3 73 8e bd f8 e9 30 be 5c d4 1c be cf 75 14 3e
       -0.069556974 -0.17276752 -0.15315384 0.14498065
000100 2e 04 3a bc 3f 92 46 3e e7 f7 a0 bd 74 6b f7 bc
       -0.011353536 0.19391726 -0.078597836 -0.030202605
000110 7b 31 49 3c 0d 3b 9e 3d 58 dd 98 bd a7 db eb 3d
       0.0122798635 0.07726107 -0.07464093 0.11516505
000120 1e f8 f2 bd 8a c3 b9 bc 14 7b 22 be 4e ab b9 bd
       -0.11863731 -0.022676248 -0.15867263 -0.09065877
000130 2d 19 57 3d fe af de 3d 76 8b 9c bd 08 76 2c be
       0.052514244 0.108734116 -0.076437876 -0.168419
000140 9f 9b 44 be cf 8c 98 3d 41 a3 cf be 20 7f 55 be
       -0.1919999 0.07448732 -0.4055424 -0.20849276
000150 f6 48 61 3c 76 4c 8e 3d 15 91 84 bd 51 e1 63 bd
       0.013750305 0.069481775 -0.06472985 -0.0556348
000160 9f 41 ac be 3f a7 e2 bd 80 cd 4b 3d b5 6a 9d 3d
       -0.33643815 -0.11067056 0.049756527 0.076863684
000170 f3 36 80 3e a7 e3 d6 be a8 d2 49 bf 07 ef 9f 3e
       0.25041923 -0.4197056 -0.7883706 0.3123705
000180 4a dd e1 bd 7e 5c 82 3d 74 72 b2 3e 7a 07 ec 3d
       -0.11028536 0.06365298 0.34852946 0.115248635
000190 ad 28 ca 3d ac 68 2c 3e 43 49 28 3f 7c 55 b4 be
       0.098710395 0.16836804 0.6573679 -0.3522147
0001a0 2a b2 b4 be 6d d9 47 be e7 fa 24 3d 7b de e0 bc
       -0.35292178 -0.19516535 0.04027834 -0.027449837
0001b0 f6 db fa 3e 50 8b 0d bd 5f b7 27 be 45 c8 14 3e
       0.48995942 -0.034556687 -0.16378544 0.14529522
0001c0 45 86 89 be 38 11 0e 3f 29 e5 e3 3e 68 74 6e 3e
       -0.26860252 0.55495024 0.44510773 0.23286593
0001d0 16 4d 16 bd a8 ee 8a bd 29 a2 65 3e b5 4c 38 3e
       -0.03669461 -0.06783801 0.2242514 0.17998011
0001e0 d9 22 cf bc b0 84 29 be 7d 60 d0 3e 80 0b ad 3e
       -0.025285171 -0.16554523 0.40698615 0.33797836
0001f0 62 49 df bd d1 64 9a 3d 7c 1d 26 bd 01 76 67 bd
       -0.109026685 0.075387605 -0.040555462 -0.05650902
000200 73 f0 e7 be 73 83 08 bd c6 f2 0e 3e 8e b4 bb 3d
       -0.45300636 -0.033328485 0.13959798 0.091652974
000210 c8 e7 97 3e 09 8d 3f be e5 72 7c 3e 9d af 82 3e
       0.29669023 -0.18706144 0.24653204 0.25524607
000220 5c ea 81 3c 4f 2d 8d be 6e 0c d6 bd f9 8a 05 3e
       0.015858822 -0.2757363 -0.104515895 0.13041295
000230 6a 4e 90 bd de 74 d1 bd bb 50 12 bf 18 8a 46 bf
       -0.07046206 -0.10227369 -0.57154435 -0.77554464
000240 ff 50 a3 bd 7f 82 2e bd 1d b7 48 3e 8c de 32 3d
       -0.07974433 -0.04260492 0.19601102 0.04366927
000250 4c 6a 09 bf 43 e2 fb bd 96 a7 3e 3e 64 67 e6 3c
       -0.5367782 -0.122990154 0.18618616 0.028125472
000260 11 c2 49 3e a4 49 7c be f6 2a 41 bf 7b 76 c2 bb
       0.19702937 -0.24637467 -0.7545618 -0.005934534
000270 ff 1d 4f 3e 38 28 85 3e 03 2b 8c 3e 77 c3 1b 3d
       0.20226286 0.26007247 0.27376565 0.038028207
000280 28 5f 08 be b5 92 a3 bc 1e 49 0c bf 67 28 04 c0
       -0.13317549 -0.019967416 -0.5479907 -2.064966
000290 56 28 98 3d 46 1b f7 3d fc 1b d8 3d ba 80 a4 3e
       0.074295685 0.12065749 0.105522126 0.3212946
0002a0 ee 35 e8 be 44 a8 2e be d9 28 0a 3e 9f ad 01 bd
       -0.45353645 -0.17056376 0.13492145 -0.03165972
0002b0 e8 18 12 be c9 83 29 bf 04 cf 18 bf 2a bf 6b 3e
       -0.14267313 -0.66216713 -0.5969088 0.23022142
0002c0 48 95 d1 bd 74 93 ad 3e e6 4c 98 3e 39 03 84 3e
       -0.10233551 0.3390156 0.2974617 0.2578371
0002d0 3b f2 43 3e 80 cd 13 3e 2e c8 9d 3d cc 83 58 bd
       0.19135372 0.14433861 0.07704197 -0.052860066
0002e0 e9 c9 bc 3d 6f de 1d be 1e 60 23 3e 32 3d e8 bc
       0.09218199 -0.15416883 0.15954635 -0.028349493
0002f0 34 5b 7b bf df 30 35 3e 5d 92 ce 3d 37 be af bd
       -0.9818604 0.17694424 0.1008651 -0.085812025
000300 85 75 67 3e bf af b0 be 90 3d 39 bf 57 fe 08 3e
       0.22603424 -0.34509084 -0.7235956 0.13378273
000310 b0 39 0c bc 65 49 5e bc f3 2e 10 3e ba 66 1c 3e
       -0.008558676 -0.013567303 0.1408041 0.15273562
000320 d6 33 7d 3d cd a9 19 3e 81 a3 06 be a4 68 c6 bf
       0.061817013 0.1500618 -0.1314831 -1.5500684
000330 81 b4 8c bc c0 ab ab bd 40 55 a6 3e e2 ed 05 3e
       -0.017175915 -0.08382368 0.32486916 0.13079026
000340 f4 ac 08 bf b4 54 ec 3d 41 6e b0 3e 3d a4 20 bd
       -0.53388906 0.11539593 0.34459117 -0.03921913
000350 d1 91 f1 3b 2f 45 0c bf 50 ed a8 be 47 d5 80 3c
       0.007372119 -0.54793066 -0.32993555 0.015726699
000360 31 64 ef bd d5 e4 b0 3e cb 2f af 3e 5c 3b 80 3e
       -0.11689032 0.34549585 0.3421615 0.25045288
000370 e4 e2 7f 3c e3 3d e8 bd cc 58 98 be 13 1e 4f bf
       0.01561806 -0.11339929 -0.29755247 -0.80905265
000380 7f 1a 95 bd 6c 50 50 bd c2 b6 4b 3e b2 12 93 3e
       -0.07280444 -0.050857946 0.19893935 0.287252
000390 a4 cf 8b be 2b 25 5f 3e d3 75 a7 3e 82 f3 0e 3e
       -0.27306855 0.21791522 0.3270708 0.13960078
0003a0 44 69 a8 3d 8e df c6 be ec e6 4f bf e1 85 ab 3d
       0.08223203 -0.38842434 -0.81211734 0.08375145
0003b0 3c fa 20 be e5 ea 42 3e a6 58 78 3c 8f 3e 84 3e
       -0.15720457 0.19034918 0.015157854 0.25828978
0003c0 e9 52 89 3d c9 e7 18 bd 95 b1 f1 be 52 47 7c 3f
       0.06705267 -0.037330423 -0.47205797 0.98546326
0003d0 72 cf a9 be c2 98 42 be 90 c4 ce bd 13 ee 56 be
       -0.3316608 -0.19003585 -0.10096085 -0.20989256
0003e0 94 4a fa 3e 25 73 05 3e 9f fc ae 3c a6 db e8 3d
       0.48885024 0.13032205 0.021360693 0.113700196
0003f0 b7 9c 9c bd c0 93 68 3f 05 8c 6c 3f f3 54 98 3d
       -0.076470785 0.9085045 0.9240115 0.07438078

l5.bias f4 [20]
000000 3a 8f 95 bd a9 f9 9f 3e 19 a7 01 3e 14 c2 01 be
       -0.07302709 0.31245163 0.12661399 -0.12671691
000010 41 f0 9e 3e 90 e9 7f be c4 9e ac 3d 9e 3d c9 bd
       0.31042674 -0.24991441 0.0842872 -0.09826206
000020 86 47 83 3e 87 3c 31 3e a5 d6 63 3e cb 16 aa 3e
       0.25640506 0.17308246 0.22249849 0.33220515
000030 0f e1 62 3e 5c be 2c 3e fd 01 9f 3d f1 84 44 be
       0.22156166 0.16869491 0.07764051 -0.19191338
000040 8e ae 80 3e 8a cf 70 bc 87 9e 56 3e a6 16 f8 3d
       0.25133175 -0.014697919 0.20958911 0.12113695

l6.weight f4 [20, 20]
000000 4d 4e 07 be d4 f0 5a be 30 52 22 3e 6b 3f a9 bd
       -0.13213463 -0.21380931 0.15851665 -0.08264049
000010 cd ee 19 3f ab e6 62 be ea 78 2f 3f 8e e1 10 be
       0.60130006 -0.22158305 0.68543875 -0.14148542
000020 7d 46 53 3e 3b 7e 47 3e a3 fc bd be 00 e0 1a bd
       0.20632358 0.19481747 -0.3710681 -0.03781128
000030 dc bd c6 3d 99 41 d8 bd 34 15 a8 be 7e ad 83 bd
       0.097041816 -0.10559387 -0.32828677 -0.064295754
000040 59 23 f2 3d 4c 5f 1b be 6f 4b 8e be d9 86 47 be
       0.11823148 -0.15173072 -0.27791926 -0.19485034
000050 d5 a5 07 be 8f db b6 bd c6 c0 52 bd fa 42 39 be
       -0.13246854 -0.08928596 -0.051453374 -0.18091956
000060 5e c9 3b bd 2c 74 1c 3f a3 84 b2 bf 30 a7 4b 3d
       -0.045846336 0.61114764 -1.3946728 0.04971999
000070 40 62 3f 3e 12 fc b7 bc 2a 3d e4 3d 6d 96 56 bc
       0.18689823 -0.022459064 0.111444786 -0.013097388
000080 33 6e a1 bf 06 56 53 3c a9 88 19 3e 2c 91 f6 bc
       -1.2611755 0.012898928 0.14993538 -0.03009852
000090 3b 49 1f be 11 67 9a 3c ca e7 1a be d5 ea af bd
       -0.15555279 0.018847974 -0.15127483 -0.085897125
0000a0 89 80 22 be cb 85 b4 3e 4d 31 7e 3e 12 6e 0c 3e
       -0.15869345 0.35258326 0.24823494 0.13713863
0000b0 35 2f 4e 3e 06 b6 19 be 5e 9b d4 3e 79 20 62 3e
       0.20135196 -0.15010843 0.41524786 0.220827
0000c0 80 5e 6a 3e 35 58 1b 3d 78 da 78 3e 89 3f b6 3e
       0.22887611 0.037925918 0.24302089 0.35595348
0000d0 9a cd 65 3d 68 b1 8d 3e f3 da b0 3e 3e 6d b5 bd
       0.05610428 0.27674413 0.34542045 -0.08858727
0000e0 90 18 59 3e fd d3 77 bc b4 2c 62 3e ac d9 69 3e
       0.21200776 -0.015126226 0.22087365 0.22836941
0000f0 db 29 ea bd e9 a4 9f bd 66 a7 33 be 07 59 03 3e
       -0.114337645 -0.07795126 -0.17544326 0.1282693
000100 99 b1 05 3d f5 88 20 3f 9b 58 27 bf a8 1c fa bd
       0.032640073 0.6270898 -0.65369576 -0.12212497
000110 6e 23 ed 3b 12 5a 0a 3e ae 56 38 3e f9 04 83 bd
       0.0072368896 0.13510922 0.18001816 -0.06397433
000120 77 38 09 bf 12 d3 f3 3d 11 c3 08 3b 49 75 04 3e
       -0.53601784 0.11905493 0.0020868222 0.12935366
000130 cd b8 78 be fc 74 48 be 84 a0 4e 3e 1c 67 2c bd
       -0.24289246 -0.19575876 0.2017842 -0.04209052
000140 f5 5f 3d 3e c4 b4 79 bd 22 05 a1 bd 01 04 59 3b
       0.18493636 -0.060963407 -0.07862307 0.0033113959
000150 a1 c1 1c 3e 21 3a 7a be c3 5c cf bd 3e c0 a0 3e
       0.15308239 -0.24436237 -0.10125115 0.3139667
000160 42 58 ab 3d cc ac 45 bd 97 64 37 3e 09 6b 26 3e
       0.08366443 -0.048260495 0.17909466 0.16251768
000170 16 8b ce 3d 1e 52 bb 3d 23 8e 6f 3e e7 8e 4d bd
       0.10085122 0.09146522 0.23394065 -0.05018511
000180 d4 27 9f 3d a8 80 0b be 76 14 6f 3e 2a 98 12 bd
       0.077712685 -0.13623297 0.23347649 -0.035789646
000190 f5 70 9a bc f6 d1 82 bd b2 04 42 bd a8 1a b1 bd
       -0.01885269 -0.06387703 -0.04736776 -0.086476624
0001a0 0f e5 00 be 30 e1 1c 3f 22 eb ab be 70 4a 19 be
       -0.12587379 0.6128111 -0.3357783 -0.14969802
0001b0 95 6e 62 bd 54 8d 55 be fd 3f 4e 3e 70 64 32 bd
       -0.05528124 -0.20854694 0.20141597 -0.043552816
0001c0 28 43 0c bf b7 77 67 be 4a 01 c5 bc 25 46 26 3d
       -0.5478997 -0.22604261 -0.024048466 0.04059424
0001d0 b3 c2 2d bd f9 1c ee 3c a5 eb 61 3e 5a 02 37 3e
       -0.042422008 0.02906655 0.22062548 0.17871991
0001e0 8e 5c 09 be 9e c0 c9 be 58 02 17 be eb 1b 2b 3e
       -0.13414213 -0.39404768 -0.14746988 0.16709869
0001f0 52 fb 76 be fc 17 14 be 03 a0 31 40 f2 62 ed bd
       -0.24119309 -0.14462274 2.7753913 -0.11591138
000200 22 d0 7b 3d 4d f9 8c bf 8a e5 ff 3c 73 f4 84 3e
       0.061477788 -1.101358 0.031237382 0.2596775
000210 02 df 63 3e a9 e6 09 bf 9f ac e0 3d c0 c0 9f bd
       0.2225304 -0.53867584 0.10970425 -0.07800436
000220 4b b8 da 3d 88 a8 90 bd 64 e7 79 3e 6a ad 9e 3e
       0.10679682 -0.07063395 0.24404675 0.3099168
000230 03 c5 86 bb a4 fa 98 3e 5b 9c e5 bc 09 c9 3e bd
       -0.004112841 0.29878724 -0.028028658 -0.04657844
000240 32 f7 25 3e 0d 45 ab 3e 33 17 7d bf fb 82 09 bf
       0.16207579 0.3345112 -0.98863524 -0.53715485
000250 ea 6f d9 3a 8f 7a e6 be 50 f4 57 bd 99 54 14 3e
       0.0016589139 -0.4501538 -0.05272323 0.14485396
000260 85 3d 48 be a1 db 8e bf df 82 4f be c4 4f e7 bd
       -0.19554718 -1.1160775 -0.20264767 -0.11294511
000270 84 bf 27 be 85 dc 93 3d 20 97 86 be ff 1f 0b 3f
       -0.16381651 0.07219795 -0.26287174 0.543457
000280 3e 14 a6 bd 10 3a c5 3b f3 e9 dd 3d d3 ef 2f 3e
       -0.0810933 0.0060188845 0.10835638 0.1718133
000290 79 29 5c bd f4 7a 07 be 80 ca 3d be bf 7e 48 3d
       -0.05375049 -0.13230497 -0.18534279 0.048949
0002a0 0b 83 dd bd ce a5 b0 3d 32 66 15 be 4e 4f e6 3d
       -0.1081601 0.08625375 -0.14589766 0.11245595
0002b0 4b c2 06 be ef d1 bd bd 83 77 34 be 3f 61 b5 bd
       -0.13160054 -0.09268557 -0.17623715 -0.08856439
0002c0 1b ca 38 be df e8 94 bd 44 12 f6 bd 79 72 39 3e
       -0.18045847 -0.07270979 -0.12015203 0.18110074
0002d0 32 a5 c9 3d aa 53 10 be c0 29 43 be 90 a0 13 be
       0.09845962 -0.14094415 -0.19058895 -0.14416718
0002e0 17 ce f3 bb 48 f0 d6 bd c0 41 8d bd a2 db 45 be
       -0.0074403393 -0.10495049 -0.068973064 -0.19322065
0002f0 39 27 32 bd 63 20 31 3e db fe 9d bc 9f 32 ce bd
       -0.043494437 0.17297511 -0.019286564 -0.10068249
000300 86 09 13 be 73 c6 45 bd 8e 58 95 3c 03 32 8c bc
       -0.14359102 -0.04828496 0.018230703 -0.017113691
000310 75 a6 11 bc 90 50 d5 3d b2 47 be 3d c7 c1 c7 3d
       -0.008889784 0.10415757 0.092910185 0.09753757
000320 d1 9b 26 3e db 97 64 3d 6a 61 59 bd 56 16 2e be
       0.16270377 0.055808883 -0.053071417 -0.17000708
000330 9e aa 97 bd ed 3b fa be 9a f5 22 3f b0 ba d0 3d
       -0.074055895 -0.48873845 0.6365601 0.10191858
000340 10 12 38 3e 0a 9b 51 3e 16 4b 78 3e 6f 63 c5 3d
       0.1797564 0.20469299 0.24247393 0.09638106
000350 5a 22 3e 3e bf a7 2b bd bb 9b b1 3d 08 fe 26 3d
       0.18567792 -0.041908022 0.08672281 0.040769607
000360 20 0b 42 3e 67 1e a5 3c bf f0 30 3d 3a ee 88 bd
       0.18949556 0.020156099 0.043198343 -0.06686063
000370 8d 0b f5 bd da a0 80 3e b2 27 b0 3c e2 76 35 be
       -0.11965094 0.2512272 0.021503303 -0.17721131
000380 de 10 96 3e 9a 3c e7 be ad 7e 9c bf 18 75 9f 3e
       0.29309744 -0.45163423 -1.2226158 0.31144023
000390 35 a1 89 3e 7c 50 82 3e e3 7a b5 3e bf 81 48 3d
       0.26880804 0.2545203 0.35445318 0.04895186
0003a0 a2 be 9f 3d 5a b5 93 3e 07 34 08 3e 97 ed 4b 3e
       0.07800032 0.28849298 0.13301097 0.19914852
0003b0 0b 87 33 3e 9f 86 11 3e fd 99 11 3e 07 b2 a0 3e
       0.17531984 0.1421151 0.14218898 0.31385824
0003c0 74 b9 41 be 75 66 51 3e 65 67 35 3e 4d a9 3c bd
       -0.18918401 0.2044924 0.17715223 -0.046059895
0003d0 80 a5 a6 be f4 91 c2 be bb 12 2f 3f 4c a6 5f bd
       -0.3254814 -0.38001978 0.68387955 -0.054601952
0003e0 a3 a8 02 3e 95 78 b2 be 2c 66 1b be 20 ff d0 bd
       0.12759642 -0.34857622 -0.15175694 -0.10204911
0003f0 c6 3e 19 3f 63 f5 ab 3e 71 34 8e be f5 2c 2f be
       0.5986141 0.33585653 -0.27774385 -0.17106993

l6.bias f4 [20]
000000 14 cb 10 3c a4 ed 0a be f1 76 8b 3e f4 c9 1c be
       0.00883748 -0.13567215 0.27239183 -0.15311414
000010 29 27 74 3e 78 27 14 be f7 be 11 3e 97 ba 92 bd
       0.23843063 -0.14468181 0.14233004 -0.071644954
000020 0a e7 50 3d 24 77 3b be 19 48 43 3e 23 5d 87 3d
       0.051001586 -0.18307167 0.19070472 0.06609561
000030 8b 3f a3 3c 5e 7d f7 3d 99 81 36 bf d2 17 85 3e
       0.01992776 0.12084459 -0.712915 0.25994736
000040 c1 1d 30 3e b1 05 9e 3e 6e 5e 64 3e 3c 9e 48 3d
       0.1719885 0.30863717 0.22301647 0.04897903

l7.weight f4 [20, 20]
000000 6d ef d5 bf 4d a4 af be 31 fe 13 3e 44 8a e9 be
       -1.6713692 -0.3430504 0.14452435 -0.456133
000010 ae 99 3e 3e 76 cb e3 be 0e ac 44 be 72 23 11 c0
       0.18613312 -0.44491166 -0.19206259 -2.2677884
000020 b7 60 cd bd e8 4e 0c 3d 3c 1f b3 3d 58 fc 64 3e
       -0.100282125 0.03425494 0.08746192 0.22361887
000030 b5 02 29 bf 06 4f a7 bd a3 fa 8c 3f ed 16 b1 3c
       -0.66019756 -0.081693694 1.1013988 0.021617377
000040 57 a5 0f 3e 7a be a2 3e 80 70 9d 3e 4a 90 74 bf
       0.14027916 0.31785947 0.30749893 -0.9553267
000050 f1 9a 87 be ff ca 85 be b6 d6 a6 3e 6b fb 0c be
       -0.26485398 -0.26131436 0.32585686 -0.13767783
000060 3a 9d 20 3e c4 da 94 be 1d cb b0 bd c6 44 9e bf
       0.15684977 -0.29073155 -0.08632491 -1.2364738
000070 97 fc 40 bc f3 ec 5c bd 7d 9a 27 3e 7c e2 88 3e
       -0.011778972 -0.05393691 0.16367526 0.26735294
000080 73 b7 f0 be 3d fc 9d 3e e8 2a af 3f be eb 7f 3e
       -0.4701496 0.30856505 1.3684969 0.24992272
000090 5b 03 8a 3e 44 eb 76 3e 9d 8e 7e 3c 0b 63 16 bf
       0.26955685 0.24113184 0.015536931 -0.5874488
0000a0 97 94 24 3f 0c 24 32 3e c4 07 a6 3c 9c 88 1a 3e
       0.6428923 0.17396563 0.020267375 0.15091175
0000b0 95 7f bb 3d 2b 9b a8 bc 06 98 ab bf 0e 07 a1 3f
       0.09155194 -0.020581802 -1.3405769 1.2580278
0000c0 48 dc 4a be d6 81 4d be a6 5b b7 3c 7d c8 84 3e
       -0.19810593 -0.2006906 0.022382569 0.2593421
0000d0 7e ac 4c bf 8a 9b e3 bc fa f1 15 40 04 41 86 3e
       -0.799507 -0.027784128 2.342894 0.26221478
0000e0 1b 67 19 3e 12 f4 8a 3e d6 b6 89 3e 8a e5 89 be
       0.14980738 0.27139336 0.26897305 -0.26932937
0000f0 5d 30 a0 bd 84 cc 1a 3d 71 4a 0a be e2 8e d0 bd
       -0.078217246 0.037792698 -0.1350496 -0.10183503
000100 3f b4 2c be d8 ac f8 3d 4c 1e 8c 3d cc 44 cf bd
       -0.16865633 0.12142342 0.06841716 -0.10120544
000110 4b 3c ce 3d 39 7f d4 bd 6a c0 8a bd 6b 20 22 3d
       0.10070094 -0.10375828 -0.06774981 0.039581697
000120 7a bb 27 3d d5 94 99 3d 4d f8 3e be 25 01 36 be
       0.040950276 0.074990906 -0.18649407 -0.17773874
000130 f5 63 96 bd 33 99 25 bc 83 8b 25 3e 61 fd 12 3c
       -0.07343284 -0.010107326 0.16166501 0.008971543
000140 ff 26 0f 3f bb 9c 52 bf e9 26 9f bd 4f 31 d6 be
       0.5591888 -0.822704 -0.077710934 -0.41834494
000150 c0 27 1a be b1 9e 9d 3e 3b e0 f2 3e 1f b6 32 40
       -0.15054226 0.30785134 0.474367 2.7923658
000160 9d d1 86 3d 57 c2 49 3e 86 c6 16 3e ec 36 af bd
       0.06582949 0.19703041 0.14724168 -0.085553974
000170 1d a3 2c 3f 63 a0 17 3e e2 bf 0a bf 14 7d 47 bd
       0.6743639 0.14807276 -0.5419904 -0.04870327
000180 21 fd e2 bd 1c 4c 3f bc 59 a7 11 3e d2 0f 8f 3f
       -0.11083437 -0.011675861 0.14223994 1.1176703
000190 9c c6 48 3e f7 1c 20 be 30 71 91 bd 8d 2f 86 bc
       0.19607013 -0.15636049 -0.07101667 -0.016380096
0001a0 65 11 2d be 48 41 b6 3d f1 a7 0e be 46 12 b1 bd
       -0.16901167 0.0889917 -0.13931252 -0.086460635
0001b0 1d 66 bb bd c1 a9 b9 3b cf d9 bd 3d 8c 1c 1f 3e
       -0.09150336 0.005665988 0.09270059 0.15538234
0001c0 f4 7e da b9 e5 7b 0b 3e be 7d d7 bd 14 79 94 bd
       -0.00041674788 0.13621481 -0.1052203 -0.07249656
0001d0 25 ae 05 3e d3 b7 2e be 58 40 35 be f2 d3 f3 3d
       0.13054712 -0.17062311 -0.17700326 0.1190566
0001e0 99 d4 8d be 48 8e 3f be bb 14 9f 3e 22 a3 a8 be
       -0.27701262 -0.1870662 0.31070504 -0.3293696
0001f0 c7 5e ac 3e e5 59 01 bf 1e 80 2c be 8c df 0a c0
       0.3366606 -0.50527793 -0.16845748 -2.1698942
000200 f2 79 fd 3c ae 0a 02 be 33 34 94 3e d4 6f b0 3e
       0.030941937 -0.12699386 0.28946075 0.34460318
000210 cc e9 53 bf 53 08 6f 3e 6d 02 ae 3f d9 74 e2 3d
       -0.8277862 0.23343019 1.359449 0.11057443
000220 ff 60 59 3c 7f 19 96 3e 7b 3d 64 3d c7 53 28 bf
       0.013267755 0.29316327 0.055722695 -0.65752834
000230 b7 3f 43 bf e4 b0 e2 be 9b fa 2f bc 18 32 35 be
       -0.76269096 -0.44275582 -0.010740901 -0.1769489
000240 c0 40 a3 bd 16 56 4f bf 12 84 47 bc 85 15 05 40
       -0.079713345 -0.8099073 -0.012177484 2.0794384
000250 0f 73 cc bb 85 f4 8c 3d 0d 5e ac 3f f5 c8 e5 bf
       -0.006239302 0.06882576 1.3466202 -1.7951952
000260 b0 54 6f 3e 09 0e b8 3f 3b b1 2c 3f fe 6e 80 3f
       0.2337215 1.4379283 0.6745793 1.0033872
000270 56 ca 61 3e e0 eb fb bf 32 1c f1 bf 04 fc 30 3e
       0.22049841 -1.9681358 -1.883673 0.17283636
000280 06 55 88 bf 35 77 e3 bd b8 23 aa 3e 26 0d a3 bd
       -1.0650947 -0.11106721 0.33230376 -0.07961492
000290 09 7c d5 3d 85 74 11 bf e1 2b 0c 3e c8 f2 10 c0
       0.104240485 -0.5681842 0.13688613 -2.2648182
0002a0 ee 79 75 3c a5 97 e9 3d 86 46 31 bd 17 3b 9c 3e
       0.014982684 0.11405877 -0.043280147 0.30513832
0002b0 34 e8 22 bf de 2b 3c 3e f4 b6 d0 3f c7 6e 7f 3e
       -0.63635564 0.18376109 1.6305833 0.24944602
0002c0 55 65 ad 3e 97 46 25 3e 5a 89 6d 3e 5c 93 ae be
       0.33866373 0.16140209 0.23196927 -0.340968
0002d0 dd 7b 07 bf 1b 9a 4c be 51 8f 3d be 49 46 9b bf
       -0.52923375 -0.19980662 -0.18511702 -1.2130824
0002e0 e3 14 66 be 5e d1 41 3e 23 f4 64 3e 89 81 9f 3f
       -0.22468905 0.18927523 0.22358756 1.2461406
0002f0 88 30 ce 3d 4e 78 44 3e 20 ce d8 bd eb 18 86 3d
       0.1006785 0.19186518 -0.1058619 0.065477215
000300 58 60 c6 be 7f d1 bc 3e 2f ae e6 3f ea 81 86 3e
       -0.3874538 0.36878583 1.8021907 0.26270992
000310 c6 b9 9f bd 82 97 12 3d e2 ad 26 bf 7c bf 5c 3c
       -0.07799105 0.03578902 -0.65109074 0.013473388
000320 ff f8 f3 3e c4 50 ac be 6a 18 70 3e ae 09 96 bd
       0.47650906 -0.3365537 0.23446813 -0.07326065
000330 32 e8 6f 3e d0 e8 05 bf 8a 1c d2 be dd 15 f6 bf
       0.23428419 -0.5230837 -0.410374 -1.9225422
000340 3a 20 0a 3e 6a d5 a7 3d 4b bc 8c 3e 5c 40 a6 bd
       0.13488856 0.081950024 0.27487406 -0.08117744
000350 c6 a4 26 bf 65 ea 10 3e 4a b0 ba 3f 44 b9 4e 3e
       -0.65095174 0.14151914 1.4585049 0.2018786
000360 df d5 6d 3e 0c 6f 89 bc a9 1f 86 3e ff b5 f7 be
       0.23226117 -0.016776584 0.2619603 -0.4838104
000370 87 1e d7 bf f0 05 5c 3f 2a c1 d9 3d 6e c1 32 3f
       -1.6806191 0.8594656 0.10632546 0.698264
000380 b8 90 a9 bc 97 37 69 3f ec d9 4d be 37 e8 0f 40
       -0.02069889 0.9110045 -0.20102662 2.2485483
000390 69 67 89 bd f4 58 c1 3c 26 67 07 be 5b e0 6e bd
       -0.06709177 0.023601986 -0.13222942 -0.05831943
0003a0 aa 65 c3 3e d9 23 2c 3d 73 31 90 be 84 17 17 3c
       0.381635 0.042026374 -0.28162727 0.009221915
0003b0 27 6b 84 bd d2 96 2d be a9 1d 07 bd de 10 9e 3f
       -0.0646575 -0.16952065 -0.03298727 1.2348897
0003c0 b5 32 35 bf 43 69 ad be 86 bf 70 3e 25 11 82 be
       -0.707805 -0.3386937 0.2351056 -0.25403705
0003d0 ba 50 89 3e ec 30 07 bf cd 2f 6a be 85 c3 12 c0
       0.26819402 -0.52809024 -0.22869797 -2.2931836
0003e0 44 04 0d 3e 7d 75 17 be 93 4e b2 3d 98 85 ac bc
       0.13771158 -0.14790912 0.08706393 -0.021059796
0003f0 20 c8 8f bf c0 67 a3 3c 57 57 7b 3f 53 dc 14 3e
       -1.1232948 0.019946933 0.98180145 0.14537172

l7.bias f4 [20]
000000 b6 71 7d bc 53 8f 62 3c 73 db 25 3e 44 42 f1 bd
       -0.015469005 0.0138281165 0.16196994 -0.11780217
000010 7e 7f 1f be db 85 36 be 2c 0f 88 3e f3 6d 6e bd
       -0.15575978 -0.178245 0.26574075 -0.058210324
000020 9a 23 26 3e 26 8b 8b 3e 97 8f 16 3e 09 86 73 bc
       0.16224518 0.272546 0.14703213 -0.014863499
000030 77 d0 de bd c7 49 c2 bd f4 75 36 3e 04 59 91 be
       -0.10879605 -0.09486728 0.17818433 -0.28388226
000040 a4 59 5e 3e 50 40 dd bd cd 1e 98 3e c2 d5 7f be
       0.21713883 -0.10803282 0.29711 -0.24983886
